data/models/bloom_model.safetensors (safetensors, 14660 bytes, 15 tensors)

net.0.bias f4 [64]
00000000: 606d b4be 789a 2e3e 8db0 3f3e 593f 9dbe
00000010: 2ba5 5c3e 0898 a33e ccb2 99b7 dea6 52b7
00000020: e091 f03d d4a6 91b7 cd2d 263e d4fe 843e
00000030: ade3 15be 10c6 d038 d42e 01ba 4d03 b1be
00000040: 63eb 9b3e de42 7bbe da71 83bd 76a5 6cbe
00000050: 2ef7 dcbd 6df8 26bd 5cbe 22be d3f1 d23d
00000060: 91ee 8c3e 88e9 9abe 0d03 633a 3d11 a0bd
00000070: bccd fdbd 0231 153e 0132 493e 0787 85be
00000080: 257b 65b9 52f4 1dbe 102f 0ebe dc5a d3bd
00000090: 7619 d6b7 e0b4 6735 38fd 6e34 6008 6abe
000000a0: 95ce 2e3e cae9 aebc c720 603c 902d 81bb
000000b0: 26b7 1f3d e8a6 d5b8 e70a 2c3e 5f5d 293d
000000c0: 5a8c 87be 44d8 d23d 58b5 c23a 3ab7 b4be
000000d0: 1185 68be f735 9f3c 621b 3b3e 7cb4 58be
000000e0: 8000 7438 b2a5 3336 41f5 b63e d41b 35bd
000000f0: eeff 8dbd a73e 873b 6b02 b4be 09ae 9e3e
-0.35239697 0.17051113 0.18719693 -0.30712393 0.21547382 0.31951928 -1.832228e-05 -1.2555827e-05
0.117465734 -1.7363032e-05 0.16228409 0.25975668 -0.14637633 9.955105e-05 -0.00049279374 -0.3457283
0.30453023 -0.24537227 -0.064182 -0.23109993 -0.10789333 -0.04076426 -0.15892929 0.103000306
0.27525762 -0.30256295 0.00086598174 -0.07815788 -0.12392756 0.14569476 0.19647981 -0.2607958
-0.00021885017 -0.15425232 -0.1388514 -0.103200644 -2.5522644e-05 8.6317414e-07 2.2257598e-07 -0.22854757
0.17070992 -0.021351714 0.01367969 -0.003942199 0.038993023 -0.0001018772 0.16801034 0.04134881
-0.26474267 0.10295156 0.001485507 -0.3529604 -0.22707011 0.019434912 0.18272164 -0.211626
5.81746e-05 2.6769526e-06 0.3573399 -0.044215992 -0.0693358 0.004127342 -0.35158095 0.30992153

net.0.weight f4 [64, 4]
00000000: 0162 133e edc5 a63d fa7a b8bc 0d5f ac3e
00000010: c8ed 1dbe 0e5d eabd cfa1 c1be 949d 9fbc
00000020: 7b09 b93e 69f3 10bf 657a 723e 46a1 54bb
00000030: 90e5 123e 7cc2 6f3e 178c 983e 22ea 8d3e
00000040: fe53 bdbe bf83 07bf d737 9e3e 9d6d 2b3e
00000050: be2c 163e 0b3b bb3e a731 cfbe 216d 9fbe
00000060: 9c37 8e3d d2eb d9be c93b b83e ad68 b0be
00000070: 2838 afbd 035c d43e 3442 b93d 4841 483e
00000080: a854 4ebe 756d c63e 4d0c 40be 3566 2d3e
00000090: 36c6 d1be 1f1e d83c 7bde 95be 4861 263e
000000a0: 28be ad3e b8cf eebe f269 acbe 4014 94be
000000b0: 2722 14be 1ff9 ce3e f098 7cbe 3625 193e
000000c0: 6e44 07be c809 dabe fa25 a4be 81cc 59be
000000d0: 7e8a b23e bd74 f9be 9353 a83d f101 593e
000000e0: 72b6 29be 0238 7e3e e83f ddbd 491d bb3e
000000f0: a022 cfbe a710 91bc 78a4 cb3e e817 133e
00000100: e5cc a2be dcff 8e3d 08df e2bc 33c3 153e
00000110: b54f 0ebe 51b2 3d3e d1c3 943e 491f aabe
00000120: 25f7 3cbc a6c2 9e3d 8bee ca3e 49e1 f5bd
00000130: 09da b23e c380 ff3e 1a1c fdbb 7c73 593e
00000140: b292 7f3e fc37 c6be 924d f7be b39e c63e
00000150: 4101 37be 2f42 903e 62e1 16be c751 923d
00000160: cce2 ab3e e329 ee3e 5ef2 c2be d33c a73e
00000170: 19dd 003f b5b5 823e e039 86be ff81 a2be
00000180: c7e6 a73e 3cc8 0cbd 0c04 083d 34d9 f03e
00000190: e5f5 493d 785b e03e dc01 8d3e b67f c03e
000001a0: 0220 fb3c c550 a3be ec7c cebe e2dc e03d
000001b0: 31c2 f0be 6713 28be 2d6a b13e 0d7b 713e
000001c0: dd0a bfbe 5dce ecbe b7b7 803c c04d a1be
000001d0: a950 a93d 7f45 e73e 787c 963c 5f72 55bd
000001e0: e7b5 53be da05 afbe f689 31be de66 9d3d
000001f0: 2df5 37be f91e 34bd bea0 a4be 03ba 91be
00000200: c172 a53e 4130 4bbe 2402 363e b52d 78be
00000210: 5bb5 963e 77f5 6c3e 19ae fcbd 91fb 113f
00000220: ddad 7bbe 6791 583d 7abb cf3e df15 de3e
00000230: af53 7d3e 6d9a e5be 601f aebe 61ae 8d3e
00000240: e7d7 9cbe 8f86 963e b1b8 953e 2283 9e3e
00000250: d6c3 783e 5cf8 d0be 84e8 1e3e 9616 873e
00000260: d6d7 e0be 412d f63e 6f95 303d 436a 93be
00000270: 6185 d83d c07b 47be f2fd d8be 522d ba3e
00000280: ff54 7abe 0f73 7d3e 3325 84be 0086 213d
00000290: 5af0 f4bd 99da 1c3e a353 41be 70fe 993e
000002a0: 6d69 b43e a48f 5abe 0041 be3e 48be 57bd
000002b0: f247 93be 0999 e53e cebe 8bbe 8983 de3d
000002c0: 5c7a 97be c8e5 ccbc e29a f7bb 6241 a9be
000002d0: 03cd 34be d825 93be bfcf b3be 9a83 083d
000002e0: e470 e7bd 31fa 20be e83a 67be 0bd0 84be
000002f0: e2ac 1dbc 8eeb 863e e0b0 113d 4fd6 af3e
00000300: 3dbe c5bb cc42 dabe cd9a 95bd 5122 c2be
00000310: 599c 04be e859 b2bd 2cf8 4bbe 41a6 683e
00000320: 9aad 60be 4cbf d23e 3280 9bbe 0031 353e
00000330: b628 bcbe 8b97 ee3d 30ec e4be 72ee 26be
00000340: 5777 963e f43d 893e 579b f3be 057e 623e
00000350: 5d50 a2be b73b 0dbe 6008 f4bc de29 ecbe
00000360: 70ff 963d 1b8d f53d 073a 81be f795 dbbd
00000370: e66a 57be 3242 61be 9ec0 4c3c fec2 7ebd
00000380: b29a e2bd 0154 d13d 0bd9 b93e 593a cf3e
00000390: 3b81 21be c486 043f dc2f f53d 9a29 c4be
000003a0: 5ccf 5ebe 60ad fe3e aebc b8bc 7713 8bbe
000003b0: cce3 d4be 9ff4 3b3e 7537 3cbe c38c 743e
000003c0: 15a8 d33b 9d26 99bd 600f d43c 2ef1 6bbd
000003d0: b6cb f53d a04e 98bc c172 3a3c 0a7b b93e
000003e0: 7de5 1d3e c2b1 953e 4995 39be 3c49 17be
000003f0: e495 84be 0047 6fbe aa07 d2be c70a 853d
0.14392854 0.0814322 -0.022519577 0.33666268 -0.15422738 -0.1144353 -0.37818763 -0.019484319
0.36140046 -0.56621414 0.23679502 -0.003244476 0.14345384 0.23414034 0.2979438 0.27717692
-0.36978143 -0.52935404 0.30901977 0.16741033 0.14665505 0.36568484 -0.4046757 -0.31137946
0.069442004 -0.4256273 0.35983112 -0.3445486 -0.08555633 0.4147645 0.0904583 0.19556153
-0.20149481 0.38755384 -0.18754692 0.1693352 -0.40971535 0.02638155 -0.29271302 0.16248047
0.3393414 -0.46642852 -0.3367458 -0.289217 -0.14466153 0.4042444 -0.24667716 0.14955601
-0.13209698 -0.42585588 -0.32060224 -0.21269418 0.34871286 -0.48721877 0.082190655 0.21192147
-0.16573504 0.24826053 -0.10803205 0.3654578 -0.40456104 -0.017708136 0.39773917 0.14364588
-0.31796947 0.06982395 -0.02769424 0.14625244 -0.13897593 0.18525054 0.29055646 -0.33226994
-0.011533533 0.0775197 0.3963512 -0.1200586 0.34931973 0.49902925 -0.0077242972 0.2123546
0.24958304 -0.38714588 -0.4830137 0.38792953 -0.17871572 0.28175494 -0.14734414 0.07144504
0.3357147 0.46516332 -0.38075536 0.32663593 0.5033737 0.25529256 -0.2621603 -0.31739804
0.32793257 -0.034370646 0.033206984 0.47040713 0.04930677 0.43819785 0.2754048 0.37597436
0.030654911 -0.3189756 -0.40329683 0.1097963 -0.47023156 -0.16413651 0.34651318 0.23582096
-0.37312976 -0.46251193 0.015712602 -0.3150463 0.08267338 0.4517021 0.018369898 -0.052111026
-0.20674859 -0.34184152 -0.17337784 0.07685636 -0.17964621 -0.04397485 -0.32153887 -0.28462228
0.32314113 -0.19842626 0.17774254 -0.24236186 0.29435238 0.23140512 -0.12337894 0.57024485
-0.24578042 0.05287304 0.4057272 0.4337606 0.24738954 -0.4484438 -0.34008312 0.27672103
-0.3063347 0.29399535 0.2924247 0.3095942 0.24293455 -0.40814483 0.15518385 0.2638442
-0.4391467 0.480814 0.04311126 -0.2879201 0.10572315 -0.194808 -0.42381245 0.36362702
-0.24446486 0.24750923 -0.2580963 0.039434433 -0.11959906 0.15317763 -0.18879561 0.30076933
0.35236683 -0.21343857 0.37158966 -0.0526717 -0.28765827 0.4484332 -0.2729401 0.10864932
-0.2958554 -0.025011912 -0.0075563053 -0.33057696 -0.17656331 -0.2873981 -0.35119435 0.03332863
-0.11300829 -0.1572044 -0.22581065 -0.25939974 -0.009623738 0.2635159 0.03556907 0.34343192
-0.006034641 -0.42629087 -0.073049165 -0.37916806 -0.12950267 -0.087085545 -0.19918889 0.22719671
-0.21941224 0.41161573 -0.30371243 0.17694473 -0.3674981 0.11649998 -0.44711447 -0.16301897
0.29387924 0.2680508 -0.47579452 0.22118385 -0.31701937 -0.1379231 -0.02978915 -0.46125692
0.073729396 0.11989804 -0.25239584 -0.10721963 -0.21036872 -0.21997908 0.012497095 -0.062197678
-0.11064662 0.102211006 0.36298403 0.40474203 -0.15771954 0.51768136 0.11972019 -0.3831299
-0.21758789 0.4974165 -0.022550907 -0.27163288 -0.41580045 0.18355034 -0.1838053 0.23881821
0.006459246 -0.07478068 0.025886238 -0.057603054 0.120017454 -0.018592179 0.0113798985 0.36226684
0.15419574 0.2923718 -0.18123354 -0.1477403 -0.25895607 -0.23366928 -0.41021472 0.06496196

net.1.bias f4 [64]
00000000: 0f8f 7b3c c9d7 fcbc 656b 543d 0e99 24bd
00000010: 4706 08bc 852b 83bd 9ee9 b9bc cdd9 d03c
00000020: 08d8 b43b eda6 8e3d 1378 2bbd 7fdc 8abc
00000030: c20d ad3b f107 7a3c 8bbd 43bd 3eae 60bd
00000040: 7715 253c 9090 9c3c ccef 13bc 85a2 7cbc
00000050: 46b4 a4bc 61ab 13bd 426c b1bc f336 09bd
00000060: fea3 01bb 5fb7 94bd 7fb4 3d3d 593f e9bc
00000070: 6b31 be3c 2292 36bd 6566 413d 95db 52bd
00000080: 5d75 3b3a 8208 e1bb 6963 34bd 3757 2bbd
00000090: b2bf e9bc 7bfc a0bc 6ef1 76bd 97c7 f3ba
000000a0: 683c 8c3d 898b 3e3d 2bf0 81bd 0901 4cbd
000000b0: 38dd 91bd 26ef 163d 637b c93c 2489 963c
000000c0: daec 533d ffd8 613d e278 5abd 6a53 53bd
000000d0: 77f3 113c bccb b73c 9c35 2abd 57d1 f83a
000000e0: 7926 95bc 9eef 2a3c 76f9 b53c 6373 26bd
000000f0: 1764 d63c dccb 0cbd f553 2cbc db05 613d
0.015353932 -0.030864613 0.051860232 -0.040185027 -0.008302278 -0.06404785 -0.022694405 0.02549448
0.005518917 0.06965432 -0.04186256 -0.016950844 0.005281181 0.015260682 -0.047788184 -0.05485367
0.010075918 0.019111902 -0.00902934 -0.015419607 -0.020105492 -0.03605211 -0.021658067 -0.03349967
-0.0019781585 -0.07261538 0.046314713 -0.02847259 0.023216924 -0.044572957 0.04721679 -0.05147894
0.00071509724 -0.0068674693 -0.044040117 -0.04183122 -0.02853379 -0.019651642 -0.06028884 -0.0018598911
0.06847459 0.04651979 -0.063446365 -0.049805675 -0.07122272 0.036849163 0.024594968 0.01837594
0.05173955 0.055138584 -0.05333794 -0.05159322 0.008908144 0.022436015 -0.041555032 0.0018983287
-0.018206822 0.010433106 0.022213679 -0.040637385 0.026170773 -0.034374103 -0.010518064 0.054937225

net.1.running_mean f4 [64]
00000000: 72dd b8be 7482 363e 7cbd 473e 6f9b a1be
00000010: 10e7 643e 0bfa a73e a8d2 d9b6 1e69 95b6
00000020: 9020 ff3d 5287 9db8 a301 2e3e 5440 893e
00000030: 498c 1dbe f080 c138 8e56 8cba b270 b5be
00000040: 3046 a03e 57d9 81be 15b6 8fbd 7400 75be
00000050: 6b37 ebbd 26e8 3bbd 9489 2abe 8806 e13d
00000060: 8c39 913e 5843 9fbe eee0 d43a a71a adbd
00000070: 7d46 06be a1d7 1c3e 8851 513e 32c9 89be
00000080: a58f 25ba 18b3 25be f4c0 15be 6671 e1bd
00000090: 6861 0cb8 f78b 72b4 6e3d 0437 725f 72be
000000a0: 0cb7 363e 6804 cfbc d233 8a3c b275 b8bb
000000b0: 5d4d 343d 6829 60b8 e7ec 333e c069 3e3d
000000c0: 00d1 8bbe 89ec e03d ea00 233b 8527 b9be
000000d0: d5d9 70be e2fd bd3c e31e 433e c6ef 60be
000000e0: 8a78 cdb8 e567 0a35 4367 bb3e cdaf 4abd
000000f0: 0c92 9abd b3e6 bf3b 2a72 b8be 7e0b a33e
-0.3610645 0.17823201 0.19505876 -0.315639 0.22353768 0.32807955 -6.4916276e-06 -4.4527833e-06
0.12457383 -7.511549e-05 0.16992812 0.2680689 -0.15385546 9.2269736e-05 -0.0010706948 -0.35437542
0.3130355 -0.2536113 -0.07017151 -0.23925954 -0.114851795 -0.04587569 -0.16654044 0.10987574
0.28364217 -0.31106067 0.0016241351 -0.08452349 -0.13112827 0.15316631 0.20441258 -0.26911312
-0.0006315655 -0.161816 -0.14624387 -0.11007957 -3.3469318e-05 -2.2588925e-07 7.882116e-06 -0.23669222
0.17843264 -0.025270656 0.016870413 -0.0056292647 0.044019092 -5.3444324e-05 0.1757084 0.04648757
-0.27307892 0.109826155 0.002487237 -0.36162964 -0.23520596 0.02319235 0.19054751 -0.21966466
-9.797614e-05 5.156019e-07 0.3660222 -0.049484063 -0.075473875 0.005856359 -0.360246 0.31844705

net.1.running_var f4 [64]
00000000: b531 a63d e3b1 5e3e c44e a73e ddec 553e
00000010: 6d92 763f 4ce5 333f 7b29 903e ef44 0b3e
00000020: 22b6 1a3e bed6 b83e 791b b63e 5415 373e
00000030: fdb5 a83e bad4 933e 53cb 2c3e ac22 dd3e
00000040: 9b9e 1a3e e86f 643e 3ed6 3e3e bee8 e63e
00000050: 216a 053f eba2 b03d 7718 f53e 83b4 703f
00000060: d2f2 4a3e a232 973e 5584 9c3e d5f6 323f
00000070: 26b9 ce3e 44dc 9a3e 4223 ac3e 3154 513e
00000080: fcb5 583e a3dd 7f3e 0e8e 0c3f 4f06 c43e
00000090: e1c5 983e c0ec 963e afcf a03e 52a2 b43e
000000a0: f123 123e 5995 0b3e fe68 8b3e 18b9 753e
000000b0: 8a02 db3d b0d6 aa3e 6611 073e 1703 e03d
000000c0: 6526 423e 0b8e 3a3e 7da0 683e b4b8 b43e
000000d0: d44e c23e 9235 3f3e 4286 0d3e 771a 053e
000000e0: 21f0 b83e db31 063f 3e03 b63e 8d01 983e
000000f0: bb40 af3b fe16 f03d 4aa3 993e 2dd0 d93e
0.081149496 0.21747546 0.3267728 0.20891137 0.9631718 0.70271754 0.28156647 0.13600515
0.1510854 0.36101335 0.35567835 0.1787923 0.32951346 0.28873235 0.16874437 0.43190515
0.15099566 0.22308314 0.18636414 0.45099443 0.52115065 0.08624824 0.47870228 0.9402544
0.19819191 0.29530817 0.3056971 0.69907886 0.40375632 0.30246174 0.3362065 0.20442273
0.21163172 0.24986891 0.5490426 0.38286063 0.2983847 0.294775 0.3140845 0.3528009
0.14271523 0.1363119 0.2722854 0.23996389 0.10693844 0.3336692 0.1319023 0.10938089
0.18959959 0.18218248 0.22717471 0.35297167 0.37950766 0.18672779 0.13820747 0.12998377
0.36120704 0.52419823 0.3554935 0.29688683 0.0053482926 0.117231354 0.30007392 0.42541638

net.1.weight f4 [64]
00000000: 0600 853f 00f3 713f 39c4 8a3f 652d 753f
00000010: f4cc 803f 430b 6d3f a1b1 823f ee65 773f
00000020: 692b 843f a235 7f3f aa89 713f 763f 783f
00000030: edf5 783f 15f2 793f 85f6 803f 5072 6e3f
00000040: 34b6 803f 4c43 7f3f 5edb 783f f9f1 793f
00000050: a1e9 713f 9c44 753f 0af2 793f c59c 793f
00000060: f66b 7d3f e9cd 783f 6dae 803f 2ded 713f
00000070: bd60 8a3f f3d8 823f 5eaa 803f 9877 733f
00000080: 015c 803f b9ba 833f 8af1 733f 3a63 6d3f
00000090: 4f35 743f 754c 7b3f 9066 733f 46bf 713f
000000a0: 9deb 823f 1081 813f 6e1d 823f dc8a 803f
000000b0: cb44 7f3f 40b2 7d3f d04f 823f 41ac 783f
000000c0: 2044 843f 0c30 7f3f 5974 813f 24ed 753f
000000d0: ec39 783f 5180 813f 65a2 6e3f 53a6 7e3f
000000e0: ae32 783f d534 803f 00c4 783f 6e04 763f
000000f0: d042 8d3f 892b 823f d420 813f abbd 793f
1.0390632 0.94511414 1.0841132 0.9577239 1.0062547 0.9259531 1.0210458 0.9663991
1.0325748 0.9969121 0.94350684 0.96971834 0.9725025 0.9763501 1.0075232 0.9314318
1.0055604 0.9971206 0.9720973 0.97634846 0.94497114 0.95807815 0.9763495 0.97504836
0.9899286 0.97189194 1.005323 0.94502527 1.0810772 1.0222458 1.0051992 0.9510436
1.0028077 1.0291358 0.95290434 0.9272953 0.9539384 0.9816354 0.9507837 0.94432485
1.0228153 1.0117512 1.0165231 1.0042377 0.99714345 0.9910011 1.0180607 0.9713784
1.033329 0.9968269 1.0113631 0.9606497 0.9696338 1.0117284 0.93216544 0.9947254
0.9695233 1.0016123 0.9717407 0.9610051 1.1036015 1.0169536 1.0088143 0.97555035

net.10.weight f4 [1, 16]
00000000: cc3d 1bbe 4214 00be 5d49 733e 9f34 a0be
00000010: dbd6 1f3e 2755 42be 4296 f5bd ea91 b73e
00000020: 7296 853e 5907 9a3e c915 b63e 5990 44be
00000030: 1092 abbe fef2 9b3e f81d 183e 8ce9 aebe
-0.15160292 -0.12507728 0.23758455 -0.31290147 0.15609305 -0.18977796 -0.1199155 0.3585351
0.26091343 0.3008373 0.35563496 -0.1919569 -0.33509874 0.30458826 0.14855182 -0.34162557

net.4.bias f4 [32]
00000000: fb0f 923c 177d d4b5 5fdd 803c f5f0 09b7
00000010: 981b c738 341f fe37 45f7 49b6 7da4 1b3c
00000020: 158b 3fbc 9687 b83b ddd2 24b6 ba18 5ebc
00000030: 82ea 95b7 8199 ce38 3266 2cbc a7cf 2db7
00000040: f505 c3b8 b7c3 89bc 288c c7b6 f9e5 80b7
00000050: 7cd4 90b7 503c 32b7 79b9 d5b5 3bdc ad37
00000060: f60a 3036 01c2 8b37 45d2 f4bb 614e 5cbb
00000070: cea8 2035 7512 403b 64e1 aa36 4478 75b7
0.017829886 -1.5831637e-06 0.015730558 -8.2219385e-06 9.494199e-05 3.029369e-05 -3.0095264e-06 0.009499666
-0.011690875 0.0056313975 -2.4560643e-06 -0.0135557 -1.7871385e-05 9.851438e-05 -0.010522412 -1.0359951e-05
-9.299434e-05 -0.016816957 -5.9469785e-06 -1.5365878e-05 -1.7265083e-05 -1.0623669e-05 -1.5923716e-06 2.072576e-05
2.6232424e-06 1.6660431e-05 -0.007471355 -0.0033616053 5.985029e-07 0.0029307876 5.0926337e-06 -1.46311395e-05

net.4.weight f4 [32, 64]
00000000: a2dd a0bd 02b3 73bd 4e65 023e 612e 2d3d
00000010: e10e 1a3d eac2 30bd e399 933d 0e4e 183e
00000020: 4b87 b23d 4460 c83c 27f4 223c 91d9 50bd
00000030: 6a8a aabd fb35 b2bc 7e43 3a3c 653b 933d
00000040: 1934 833d d3fe d9bd 253b 64bd a0cd 89bd
00000050: 0bea 8d3c d1a2 d43d af61 c03d 52b5 323d
00000060: fe94 d23c c400 a93d 8127 c43c f50b 86bd
00000070: 4781 03bd cc7c ecbd aff3 a83d e58f 1fbc
00000080: 89c9 643d 6b3c df3c 0ee7 8d3d d45f 523d
00000090: 4856 b73d cdff 9cbc c6af 09bc 7b32 c03d
000000a0: 78f1 3c3d 5301 1a3d c6d7 3d3d a502 023e
000000b0: 76f2 283d b143 333d 0989 5a3d 6289 cb3d
000000c0: 3f5b a6bd d24a 073e f2cd 263d acca fb3d
000000d0: a0d4 7a3c a31c 05bd c4ab ab3d 8991 093b
000000e0: e814 86bd e50e 5e3b 04ad 4a3d 7f52 823d
000000f0: 7c59 9bbd 3720 8d3d 1f64 27bc 0896 cb3c
00000100: 5ef5 cabc c1aa 02be 2b43 92bd c2b1 c1bd
00000110: 2a29 1ebd c8bb 80bd fe61 943d caee 853d
00000120: f3e0 38bd de72 0ebe d402 12bd 939a 6c3d
00000130: e719 9bbc 17f7 c3bd 3995 b8bd c88e acbd
00000140: 021f 733d 9ba9 72bd 2a5b ddbd 30d4 4a3d
00000150: 3f00 7abb 9b8b b8bd 9f10 5c3d 8741 d7bd
00000160: 2208 4bbc f3e7 97bd f33a f3bb 7e03 923c
00000170: e04b fbbd 6b98 c2ba ade5 e7bd f138 cbbd
00000180: 4666 f8bd d304 e3bd cb52 6c3d 0dca a4bc
00000190: 0057 8abd ab25 e4bd 3235 b13d 2788 75bd
000001a0: a7f8 df3c 6c0d 24be 892d 68bd c6ee 30be
000001b0: a0bd 4abd f462 bebd 27e9 eabc 9590 38bd
000001c0: 93d1 ebbd abd0 8f3c 10c3 4cbd 3562 833d
000001d0: f1ca f53c 6fe3 dabd f6b8 7c3c 2257 a13d
000001e0: 065d 5c3d 4a7a 023d 3aa6 bd3d 6e8a 933d
000001f0: d1ef b1bb 5180 11be 83c8 bebd 8203 32bd
00000200: 38a0 783d 05da 363d cf7c c9bc d4c4 1dbe
00000210: 093a 6e3d 0fca e6bc 0cfb 48bc 1dab e0bd
00000220: da3b b93c 80fd 793d 8e07 023e 02f4 133d
00000230: 304c 513d 2d9f 84bd facd 9d3d 99bf fbbd
00000240: b8ab 2fbd 53ba 81bd 6993 0bbe 47c1 bfbc
00000250: c3ca 0ebe 5a9c 0fbe 9676 753c 5434 df3d
00000260: 86d4 6b3d 5e70 f7bd 1f0a 21be 949b aabd
00000270: 1c3e f3bc 8b55 f13d 4b41 28be 4805 813c
00000280: 6583 95ba 69b6 a73d 7274 55bd d448 223d
00000290: f0da 0abd 36dd 7d3d aea6 a1bc 103f 833d
000002a0: dd4a 16be 074b 59bb 1daf 103d 70d9 23bd
000002b0: f57e 0f3d 687a 5d3d f282 55bc 2b65 1cbd
000002c0: fa87 ccbd abfd d4bb cacc f6bc 1860 c4bd
000002d0: 14c4 9b3d bb04 cfbc 4150 393d c70b c2bd
000002e0: f7ba 7d3c 200e cf3c b895 be3d 34b2 9a3d
000002f0: fee5 25be 7eac 17be ff49 b3bc 430f f1bd
00000300: c632 26bd e05d b33d 8e83 16bd 8450 cd3d
00000310: 6d3a 9d3d 214c 313c 1e76 fe3c 8901 2dbd
00000320: 6d4b cdbd dec2 dcbd aa24 d4bd f33b e9bd
00000330: 3fe9 8fbd 48f7 8bbc 4eca 263c ad57 59bd
00000340: b815 15be 8747 083d 74c1 013e 2413 7bbc
00000350: 1400 f53c 1ec9 04bd 2a6f 303d ddda 3a3c
00000360: 6722 973d 041e 2fbc 53ae b5bd b2db b2bc
00000370: 1c66 283d 758b a0bd ea69 79bd 1213 0cbc
00000380: 108f 0abe c23d a8bc dd9a f5bc 2010 9ebd
00000390: 75b9 bf3d e066 10be fe17 283d c2b8 eabd
000003a0: d09a e9bd 33b3 d53b 079d acbd ca06 723d
000003b0: 3d18 2dbb 1a3c 863d 5942 e0bd 5d40 8c3b
000003c0: 6601 213d bd39 2b3d 3fb3 673d e762 9d3d
000003d0: c073 3bbe bf2f 65bd 9240 c3bc 909b 2d3d
000003e0: d73e b9bc f395 723c 07af 97bd a201 8c3d
000003f0: d142 abbd cfbf 4bbd 00f0 d0bd ee19 a7bd
-0.07854773 -0.059496887 0.12733957 0.04228056 0.037611846 -0.043154635 0.07207086 0.14873526
0.08717211 0.024459966 0.009945906 -0.050988737 -0.08327182 -0.021754256 0.01136863 0.07189063
0.06406421 -0.10644307 -0.055720467 -0.06728673 0.017323514 0.10382617 0.09393632 0.04362995
0.02570581 0.08252099 0.023944618 -0.065452494 -0.03210571 -0.115472406 0.08249604 -0.009738897
0.05585626 0.02725049 0.06928836 0.05136092 0.08952004 -0.019164944 -0.008403724 0.093846284
0.04612872 0.03759892 0.046348356 0.12696321 0.041246854 0.043765727 0.053353343 0.09938313
-0.081228726 0.13212135 0.04072375 0.12294516 0.015309483 -0.032498013 0.08382371 0.0020991287
-0.06546956 0.003388339 0.049481407 0.06363391 -0.07585427 0.0689091 -0.010216742 0.024851814
-0.024775203 -0.1276045 -0.071417175 -0.09457733 -0.038613476 -0.062858164 0.07245253 0.06539686
-0.045136403 -0.13911006 -0.03564723 0.0577646 -0.01893325 -0.09568613 -0.09012837 -0.08425671
0.059355743 -0.05924378 -0.10808404 0.049518764 -0.003814712 -0.09011003 0.05372679 -0.10510545
-0.012392076 -0.07417288 -0.007422799 0.01782393 -0.122703314 -0.001484645 -0.11323104 -0.0992297
-0.12128882 -0.110849045 0.057696145 -0.020115877 -0.06754875 -0.11139997 0.08652724 -0.059944298
0.027340246 -0.16020745 -0.05668405 -0.17278585 -0.049497247 -0.092962176 -0.028675629 -0.04505976
-0.115145825 0.017555555 -0.049990714 0.06415216 0.030003997 -0.10687911 0.0154249575 0.078779474
0.05379965 0.031854905 0.09260221 0.07204138 -0.0054301997 -0.14209105 -0.09315588 -0.043460377
0.06069967 0.044641513 -0.024595646 -0.15407115 0.058160815 -0.02817252 -0.0122668855 -0.10970137
0.022611547 0.061032772 0.12698194 0.036121376 0.05109805 -0.06475673 0.077053025 -0.12292404
-0.042888373 -0.06334367 -0.13630451 -0.023407592 -0.13944535 -0.14024487 0.014981886 0.10898653
0.057575725 -0.12081979 -0.15726517 -0.083304554 -0.029692702 0.11783894 -0.16431157 0.015749589
-0.0011406956 0.08189089 -0.052113004 0.039620236 -0.0339002 0.06197854 -0.0197328 0.064085126
-0.14676996 -0.0033156292 0.03532325 -0.040002286 0.035033185 0.054071814 -0.013031708 -0.03818242
-0.09986873 -0.006499966 -0.030126948 -0.09588641 0.07605758 -0.02527081 0.04524255 -0.094749026
0.01548647 0.02527529 0.093059 0.07553521 -0.16201016 -0.14811894 -0.02188587 -0.11770489
-0.040575765 0.087581396 -0.036746554 0.10025123 0.076771595 0.010821373 0.031062182 -0.042237792
-0.10024152 -0.107793555 -0.103585556 -0.113883875 -0.0702691 -0.017085686 0.010180069 -0.05306213
-0.14559066 0.03327134 0.12671453 -0.015324388 0.029907264 -0.032418363 0.043074764 0.01140472
0.073796086 -0.010688309 -0.0887114 -0.021833275 0.041113004 -0.07839099 -0.060892023 -0.008549469
-0.13531137 -0.02053726 -0.029981071 -0.07717919 0.09361545 -0.14101744 0.041038506 -0.11461021
-0.11406481 0.0065216064 -0.08428388 0.059088506 -0.0026412152 0.06554432 -0.10950155 0.0042801336
0.039307974 0.04180311 0.056567427 0.0768488 -0.18305874 -0.055953737 -0.0238345 0.042384684
-0.022612972 0.0148062585 -0.07406431 0.06836249 -0.083623536 -0.04974347 -0.10202026 -0.081592426

net.5.bias f4 [32]
00000000: 6da7 c03d 1921 073e 0314 923c 5116 0a3e
00000010: 9070 9d3d 6532 943d 2ba6 ed3d d2d2 f53d
00000020: 1af7 143e 889d ec3d 4462 c23d 6562 f83d
00000030: e51b 963d 8616 cb3d 8944 98bc f85d f63d
00000040: faed d93d 854b e63d 0982 1c3e 8d43 da3d
00000050: e6a3 d33c d1c4 cd3d b379 993d ed3e 153e
00000060: b752 fc3d e9b6 973d a21b f33d 7f23 913d
00000070: cca9 dc3d 158e a43d b4a5 c63d 41ad 163e
0.09406934 0.1319622 0.017831808 0.13485076 0.07687485 0.072361745 0.1160396 0.120031014
0.14547387 0.11553484 0.09491399 0.12128142 0.07329539 0.099164054 -0.018587368 0.12029642
0.106410936 0.11244873 0.1528398 0.106574155 0.025834989 0.100473054 0.074939154 0.14574786
0.12320464 0.07407934 0.11870505 0.070868485 0.10774574 0.080349125 0.09699574 0.14714529

net.5.running_mean f4 [32]
00000000: 53eb 1a3f bab5 5fbf fad1 d8be a496 0abf
00000010: 5e7a 043f f5be 1b3e ed43 f23e f83e 82bc
00000020: c4f4 66bf 3505 913e 11b2 5f3e f967 8b3e
00000030: 7c82 5b3e 354d 813e c26f f6bd cc6f 1dbf
00000040: 27ff 853e 475a 23bf 38e5 2ebf 6058 d53e
00000050: 4a75 c63e a194 9a3e f590 793e 9a34 2fbf
00000060: 8db2 c8bd 15f9 b03e 71c4 993e fcff ac3c
00000070: 5fe4 ce3e e1eb 4abf db98 e23e 778e 5ebf
0.60515326 -0.8738667 -0.423477 -0.5413611 0.5174922 0.15209563 0.47317448 -0.015899166
-0.9021723 0.28324285 0.2184527 0.27227762 0.21436495 0.25254217 -0.12033035 -0.61498713
0.26171228 -0.6380963 -0.6831851 0.41668987 0.3876136 0.3019152 0.24371703 -0.6843964
-0.09799681 0.34565035 0.30032685 0.021118157 0.40408608 -0.7926617 0.44257244 -0.86936134

net.5.running_var f4 [32]
00000000: a527 023f 19ae 303f 8e55 f33e da75 9c3e
00000010: a093 923e 59ea ef3e 12a9 183f 08e8 343f
00000020: 612e 143f 8410 d83e 0c9b 9d3e 991c 993e
00000030: 5dbf f63e 4b46 0a3f a466 c73e 1233 cd3e
00000040: f593 f33e a668 2f3f 7b67 5f3f bdf0 bc3e
00000050: 7a26 153f b90b a33e a858 d33e bcb9 cc3e
00000060: e9cd 063f fa1f 8f3e 30c2 983e cd85 d23e
00000070: 822a cf3e 6264 1d3f 56eb b03e 45c1 603f
0.5084174 0.6901565 0.4752621 0.30558664 0.28628254 0.4685848 0.5963298 0.7066655
0.5788327 0.422001 0.30782354 0.2990463 0.48192874 0.5401351 0.38945496 0.40078026
0.4757382 0.68519056 0.87267274 0.3690242 0.58261836 0.3184488 0.41278577 0.39985454
0.52657944 0.27954084 0.29835653 0.41117707 0.40462118 0.61481297 0.34554547 0.87794906

net.5.weight f4 [32]
00000000: 631f 8e3f bde8 903f bc8d 813f 2758 903f
00000010: b6ae 893f d7ad 8a3f ee02 903f 7381 913f
00000020: 89cb 903f bc4a 8e3f c413 8f3f 5bcd 903f
00000030: 6263 8d3f dd3b 8b3f 53e5 823f 253e 8d3f
00000040: 72e9 8d3f 1235 8c3f 6052 933f f55a 8f3f
00000050: 185c 823f 4cbf 8f3f 001c 8c3f b166 913f
00000060: 0fca 903f fed0 8d3f 9a24 8f3f 79ff 8d3f
00000070: 23a7 8d3f df16 8b3f d8ea 8c3f c3cf 923f
1.1103328 1.1321026 1.0121379 1.1276902 1.0756443 1.0834302 1.1250894 1.136763
1.1312114 1.1116557 1.1177907 1.131267 1.1045954 1.0877644 1.0226234 1.103459
1.1086867 1.0953696 1.1509514 1.1199633 1.0184355 1.1230254 1.0946045 1.1359464
1.1311663 1.1079404 1.1183045 1.1093589 1.1066631 1.0866355 1.1009169 1.1469654

net.8.bias f4 [16]
00000000: 0747 04bd c93e 4e3e 6bfe dcbc 9d1d 0b3e
00000010: f515 363e dd6a 17bd 13b8 dd3d ef5e 20bd
00000020: 9f09 6e3e c87d 103e 2387 583e cab0 77bd
00000030: c3fd 803d 0cd9 4bbc 8e1a 9a3e ef4f b13d
-0.0322943 0.20141138 -0.026976785 0.13585515 0.17781813 -0.036967147 0.10826125 -0.039153036
0.23245858 0.14110482 0.211453 -0.060471334 0.06298401 -0.012441885 0.30098385 0.08657824

net.8.weight f4 [16, 32]
00000000: 7f00 893e 37cd 36bd 5d94 763d fca6 0f3e
00000010: 58e4 523e 06d6 603d 3a15 e63d 7d00 033d
00000020: 8c38 193c 3d89 8d3e a673 7c3e 5441 803e
00000030: 7fc4 3dbc 5518 e6bc 9ba6 0a3b fdb8 cbbd
00000040: b50c dc3d 1d60 02be d6b2 82bd 972a 2b3e
00000050: 4345 7f3e cd0d 4b3e c191 083e f7b8 fa3c
00000060: b506 2cbd 27a8 333e f600 9d3e c7eb 053e
00000070: 30d1 20bb 6568 bbbd e127 7f3e 282e 263d
00000080: d77f 593e 8e26 0ebd 0061 d4bd 4d06 7b3d
00000090: d082 853d 7011 8bbc 8ee9 623e e75c d3bd
000000a0: ff1f 10be 1b5c 783e 39ae 823e 67f2 d43d
000000b0: 766e 693d 6636 413d 3949 4dbd ec77 2fbe
000000c0: bccd 533e b5fd 0c3e 2e14 363d a8d9 663e
000000d0: 97f2 1c3e be3c 7f3e eac0 703e 0346 73bd
000000e0: 6ee4 cbbd 8f6a 683e 287e 243e 8af0 dc3d
000000f0: 1f18 643d 4a53 99bb 0977 383e e090 4dbe
00000100: eca2 bc3d f4b4 293d 61c1 d03c 54a1 293c
00000110: f5f7 fbbd 813b 23be f8ab d33d 2486 b43d
00000120: 6784 223e dd58 9bbd c9e1 cc3d 9d96 18be
00000130: a7f4 2abd 5561 8cbd 7748 813d 3494 4a3e
00000140: bfb0 02be 7ebd 983c 6769 8d3c 8bd3 8b3b
00000150: 189e 203a 2da7 3abe c67a f93c c0be 803e
00000160: b16a ad3d ad1b 91bc 64af d23d b9b3 96bd
00000170: 87ef 31be f8c3 613e f4d2 3b3c 831a 303e
00000180: 7894 b13c e61b e2bd 2c24 a8bc 13fd 0c3e
00000190: c0d0 403e 6120 31bd f89b 283e 2fbc a4bd
000001a0: 0c81 883d 0f17 153e ed50 823e 525c 5f3e
000001b0: b330 e63c e98a 073d 027e e6bc 6a56 b3bd
000001c0: f2ef 643e 387c e2bd 0140 0cbe 0966 783d
000001d0: 45ed bc3d 473e 933e 6048 843d e73f 883b
000001e0: 6291 4a3d 7140 843e 7717 3dbd faab b43b
000001f0: 81dc 353e caac 82bd 37de 0ebd 9afe 1ebe
00000200: e3e3 13be a0c9 37bb 0799 2d3c 99eb 9e3d
00000210: 7b20 c1bd 07cd 43be e4c4 4dbe 37e6 463e
00000220: 77fd 953e 2181 3a3c 35a0 7a3d d320 cbbd
00000230: 27bd a83d f9ee a6bd e47c 04be 470c e53d
00000240: 208a 7b3d 0fdd 373e ac9a 803e e0aa 643c
00000250: 7a3e 7a3d b64a 2fbd 0659 fe3c 2c4b 833d
00000260: 75a0 fe3c f6e0 a53b ae77 3cbe c7fc 25be
00000270: 1b0c 5abe 5d22 eb3d 3b98 633d fff6 0a3e
00000280: 9278 883e d785 44bd 39cb fbbc 0436 73bd
00000290: 4deb f43d c534 2abd b8f4 053d c8a0 f2bc
000002a0: 04e2 3fbd 3587 0b3e 056a 033d f086 393e
000002b0: cafb cf3b d602 fa3d f695 283e c0da 993d
000002c0: c3f3 6d3d 195c 913d 9bd6 ecbd 6c21 22bd
000002d0: 71d0 1cbc 001e 893d 70d3 223e 63b9 a23c
000002e0: 97d3 6a3d d012 8b3d bb80 563e baaf 5bbb
000002f0: 40d8 f03d a53b 2d3c 2459 103e 6ca7 f7bc
00000300: e153 6f3d 0d58 4cbe 3ced f43d e4c6 ce3c
00000310: 03a6 d3bb 3e83 86bc d610 1a3e 58b8 36bd
00000320: 489f d63d f7a3 74bc e172 6abd 7f3a bb3c
00000330: ce15 27bd 372a 033e 575e 1c3e eb9a fbbd
00000340: 4edd 3cbd 1d1c 7bbd 4e47 74bb 140f 713d
00000350: 6bc0 71bd 6db7 053e 6792 563d 461a 0abd
00000360: b392 f5bd e470 8abd 9c54 483d 4191 5dbd
00000370: 8322 afbd 6e21 a0bc 7536 b03d 84e9 b8bd
00000380: b138 d83c 8a03 213c 5372 b43c 38e5 443e
00000390: e426 9d3c a446 ffbd aa87 803d 1b45 633e
000003a0: 8ec6 8a3e 96f3 e53d 0499 ecbd 765e 8d3d
000003b0: 602a 51be 23c3 1fbe 7eb9 2b3c ba41 853e
000003c0: 549b 40be 6011 083b f841 833e b669 01be
000003d0: 112a 10be da0f dbbd 7c7a 32be 1b98 843e
000003e0: 6043 ff3d d0f1 4b3d ce43 dfbd c418 d2ba
000003f0: 1432 d2bb 24ec 6d3e 7a76 b13d e1a0 9b3c
0.2675819 -0.044629302 0.060200084 0.14028543 0.20594919 0.05489161 0.112345174 0.031982888
0.009351861 0.27643767 0.24653491 0.2504984 -0.011582493 -0.028087774 0.0021156434 -0.09947393
0.10744611 -0.12731977 -0.063817665 0.16715465 0.24928765 0.19829483 0.1333685 0.030605776
-0.041998584 0.17544614 0.30664796 0.13078223 -0.0024538748 -0.09150771 0.24917556 0.04057136
0.21240173 -0.034704737 -0.10370064 0.061285306 0.06519091 -0.016976088 0.22159407 -0.10320454
-0.14074706 0.24253885 0.25523546 0.10397797 0.05699011 0.04717102 -0.05011866 -0.1713559
0.2068395 0.13768657 0.04445284 0.22543967 0.15326916 0.24925515 0.23511091 -0.05939294
-0.09955679 0.22696899 0.1606375 0.10788067 0.055687066 -0.0046791183 0.18014158 -0.20074797
0.092107624 0.041432336 0.025482835 0.010353405 -0.123031534 -0.15940668 0.10335535 0.08814648
0.1587082 -0.07585309 0.100040026 -0.14901204 -0.041737225 -0.06854502 0.0631265 0.19783098
-0.12762736 0.018645044 0.017262174 0.0042671612 0.00061270734 -0.18227835 0.03045405 0.2514553
0.084676154 -0.017713392 0.10287359 -0.07358498 -0.17376529 0.22047412 0.011463869 0.17197613
0.02167724 -0.110404775 -0.02052506 0.13768415 0.18829632 -0.04324377 0.16465747 -0.08043706
0.06665239 0.14559577 0.25452366 0.21812561 0.028099393 0.03309146 -0.028136257 -0.087567165
0.22357157 -0.11058849 -0.1369629 0.060644183 0.09224943 0.2875845 0.06459117 0.0041580084
0.049455054 0.25830415 -0.046164956 0.0055136653 0.17759897 -0.06380613 -0.03487989 -0.1552681
-0.144424 -0.0028043762 0.010595567 0.077597804 -0.09430023 -0.1912118 -0.20094639 0.19423757
0.2929494 0.011383326 0.06118794 -0.0991837 0.08239203 -0.08151049 -0.12938267 0.11183982
0.061411023 0.17955421 0.25118005 0.013956755 0.06109474 -0.04279586 0.031048309 0.06410822
0.031082371 0.005062218 -0.18405029 -0.16209708 -0.2129368 0.11481164 0.0555651 0.13570784
0.26654488 -0.047979202 -0.030736553 -0.059377685 0.119589426 -0.04155423 0.032704085 -0.029617682
-0.046846405 0.13625796 0.03208353 0.18117881 0.0063471543 0.12207572 0.16463456 0.075124264
0.058093797 0.07097644 -0.1156437 -0.039582655 -0.009571181 0.06695175 0.1590097 0.01986379
0.057330694 0.067906976 0.20947544 -0.003352149 0.117599964 0.010573302 0.14096504 -0.0302312
0.058429603 -0.19955464 0.11959311 0.025241323 -0.006458999 -0.016420003 0.15045485 -0.044609398
0.10479599 -0.01493167 -0.057238463 0.022855042 -0.04079228 0.12809072 0.15270363 -0.12285408
-0.04610949 -0.061306108 -0.0037273946 0.05885227 -0.059021395 0.13058253 0.052385714 -0.033716463
-0.11990871 -0.067598134 0.048908815 -0.054093603 -0.085515045 -0.01954719 0.08604137 -0.090289146
0.02639422 0.009827504 0.02202717 0.19228065 0.019183584 -0.124646455 0.06275876 0.2219433
0.2710461 0.11228101 -0.11552623 0.069027826 -0.20426321 -0.15601783 0.0104812365 0.26026708
-0.18809253 0.002076231 0.25636268 -0.12637982 -0.14078547 -0.10696383 -0.17429537 0.25897297
0.12464023 0.049791157 -0.109016046 -0.0016029109 -0.006414661 0.23234612 0.08665176 0.018997611
