data/models/bloom_model_torch.pt (torch, 20893 bytes, 15 tensors)

net.0.weight f4 [64, 4]
000000 12 9e f9 3c 95 db 8e be 80 97 a1 3c 82 37 42 bd
       0.030470882 -0.27901903 0.019725561 -0.047416218
000010 36 89 6f be d3 a4 38 3e 29 18 95 3d 39 72 80 bc
       -0.23392186 0.18031625 0.07279999 -0.015679466
000020 00 5b ff bd 67 40 b5 bd 04 c1 88 be 26 3e a2 be
       -0.12468529 -0.088501744 -0.2670976 -0.3168804
000030 bd 7f a9 3c a6 b8 b2 3e fd c1 df 3c 07 da 89 3e
       0.020690793 0.349065 0.02731418 0.26924154
000040 60 d9 5d 3d a8 40 87 be 0b cc 90 be b9 1f 91 be
       0.054162383 -0.26416516 -0.28280672 -0.28344515
000050 8c 6f de bc e8 89 b6 3e a8 98 f2 3d 6a 75 c1 bd
       -0.0271528 0.3565209 0.11845523 -0.09446223
000060 5b b9 4b 3e 06 f7 ae be a6 3c bd 3e 46 9d 06 3d
       0.19894926 -0.3417284 0.36960334 0.03286483
000070 cc 6d 42 3e 68 24 96 3e 75 3e b7 bd e8 22 5d bd
       0.18987197 0.2932465 -0.089474596 -0.053988367
000080 f8 90 88 3e da a1 64 3e 0b 25 8e be af 1f 38 be
       0.26673102 0.22327366 -0.27762637 -0.17980836
000090 34 43 44 be f2 df 48 be 0c b3 98 3e 41 ee 42 3e
       -0.19166261 -0.19616678 0.29824102 0.19036199
0000a0 f5 8e b5 be 42 59 01 3e 45 a3 37 3e 16 d9 36 3c
       -0.3546063 0.12631705 0.17933376 0.011160156
0000b0 a4 5e 4b be 87 fa 69 3e e9 4a 19 3e 8a b1 10 bd
       -0.19860321 0.22849475 0.14969982 -0.035325564
0000c0 88 56 a6 be ef 8a 6b be 80 38 b7 b8 66 53 13 3d
       -0.32487893 -0.23002218 -8.736644e-05 0.035968207
0000d0 6f d8 c8 bd 75 ad e0 3b 63 88 68 bc 57 84 8b be
       -0.098069064 0.006856615 -0.014192673 -0.27249405
0000e0 00 fb ae 39 dd 61 77 3e 3b 36 70 be e2 03 8d 3e
       0.00033374876 0.24158426 -0.23458187 0.27542025
0000f0 22 88 26 be 77 45 ad be 96 42 8c 3e bb 1d b2 3e
       -0.16262868 -0.3384206 0.2739455 0.34788308
000100 0e 36 82 3d 4e 1a 0c be e3 ad b7 be 54 52 b2 be
       0.06357966 -0.1368191 -0.35874853 -0.34828436
000110 5a c0 fa bd 09 94 85 be 21 da 4d 3b ee 5a ec b9
       -0.122437194 -0.26089504 0.0031410533 -0.00045081176
000120 be a4 27 be 7a 08 99 3a d9 3a 76 bd 40 d8 bc 3c
       -0.16371438 0.00116755 -0.060114715 0.023052335
000130 85 02 34 3e 7e 04 3a 3e 8e 90 44 be 03 3f b2 3d
       0.17579086 0.18165776 -0.19195768 0.08703425
000140 af 19 a4 3e 93 f2 8b 3e 0f 4a 6c bd 1f 2a a8 be
       0.32050845 0.27333507 -0.057687815 -0.32844636
000150 b0 23 44 3e 44 ed 10 3d 2f 99 44 3e 63 65 ae be
       0.19154239 0.035382524 0.1919906 -0.34061727
000160 4c d8 c6 bc d1 bf 5f 3c d0 ee 02 3e 73 4c 4c 3e
       -0.02427306 0.013656572 0.12786412 0.19951038
000170 f5 6e 1b be 21 68 75 be fd 2e 78 3c 81 f1 8c be
       -0.15179045 -0.23965503 0.015147922 -0.27528003
000180 54 36 a0 be 77 0b aa be 61 98 b1 3c 86 19 5c be
       -0.3129145 -0.33211872 0.021679105 -0.21494111
000190 6d 79 54 be 94 4c 83 3e 2f 06 24 3e df 82 0f 3d
       -0.20749445 0.25644362 0.16017984 0.035036918
0001a0 58 e8 ba 3c 56 66 01 3e 5f 2b 85 be f3 0f 63 be
       0.022815868 0.12636694 -0.26009652 -0.22174053
0001b0 d1 c8 c0 be d1 3b bf 3e 49 5f 02 be 36 c0 3c be
       -0.3765321 0.37350324 -0.12731661 -0.18432698
0001c0 2b dc d6 3b c0 d1 05 3e 9e fc a7 3d dc 6a a7 3b
       0.006557008 0.13068295 0.0820248 0.005109174
0001d0 e6 c0 82 bd b2 56 59 be 20 05 bc 3b 79 65 bf bb
       -0.06384449 -0.21224478 0.0057379156 -0.005840954
0001e0 31 51 60 bd cd c5 90 3a b2 33 79 3a 92 fb 96 3e
       -0.05476493 0.0011045277 0.00095062994 0.29488808
0001f0 fe 9f 20 be f7 fa cd 3c 57 01 7c 3d 41 a2 1d 3e
       -0.15686032 0.025144083 0.061524715 0.15393926
000200 25 49 58 be 86 2b 43 3e 35 7b 82 bd e3 2f 38 3e
       -0.21121652 0.19059572 -0.06371156 0.17987017
000210 58 02 96 3d 72 0c e0 3e 99 ae 77 be d2 0f de 3e
       0.07324666 0.43759495 -0.24187697 0.43371445
000220 57 aa 0b 3a c6 37 aa be ea 55 53 3c ed 50 7d 3d
       0.0005327812 -0.33245677 0.0128989015 0.061844755
000230 ac b3 02 be 03 fd 0b be 2f 1a ae be 38 5e 01 ba
       -0.12763852 -0.13670735 -0.34004351 -0.0004934999
000240 d0 33 23 be fc 7a b6 bd 5b cf 4f be a2 ba a1 be
       -0.15937734 -0.08910176 -0.20293944 -0.31587702
000250 56 b1 16 3e a9 dc 50 3e 45 5b 9f be dd 1b 1e 3e
       0.14716086 0.20396675 -0.3112432 0.15440316
000260 60 16 0c 3c fe 9b c0 bb 28 64 b3 3e 02 01 1f bd
       0.0085502565 -0.0058779707 0.3503735 -0.03881932
000270 62 ba 8c be 47 1c d3 3e 6c b9 22 3e 84 80 22 3e
       -0.2748595 0.4123251 0.15891045 0.15869337
000280 74 7e 00 3e c8 a4 d0 3d 46 36 16 be 4e 98 24 3e
       0.12548238 0.101876795 -0.14669141 0.16073725
000290 02 75 a5 bd 26 54 8b bb c8 11 c4 be f4 ad dd be
       -0.08078958 -0.0042519746 -0.38294816 -0.43296778
0002a0 bb 4d 16 bc 6c 2b df 3d e8 45 7f be 8f d9 97 3c
       -0.009173806 0.10896954 -0.24929011 0.018536357
0002b0 5c 18 2c bd bb e7 21 3c bb c2 7b 3c 99 a3 7e be
       -0.04201542 0.009881909 0.015366252 -0.24867095
0002c0 58 60 34 3e 73 13 94 3e 20 be 2e bb 4e 72 d4 3e
       0.17614877 0.2892109 -0.0026663616 0.41493458
0002d0 e4 b8 44 bb 57 46 02 3e cb 50 b2 be 4b 72 0a 3c
       -0.003001743 0.12722145 -0.34827265 0.008450101
0002e0 24 0c 9c 3d 68 8a 92 be e0 5e 90 3e 39 63 14 bd
       0.07619503 -0.2862122 0.28197384 -0.03622744
0002f0 43 2a 54 bd de 3e ab b9 31 57 1f 3e 82 d3 a8 be
       -0.051798116 -0.000326625 0.15560605 -0.32973868
000300 1c f6 4d 3e f7 10 b1 be df db 44 3e 1e 52 8a be
       0.20113415 -0.34583256 0.19224499 -0.27015775
000310 d3 5f ab 3d 41 ae b2 be 0e 80 e5 3e 53 52 09 3d
       0.083678864 -0.3489857 0.4482426 0.033525776
000320 48 e0 7c be b6 e3 f7 3a 6a 5c 85 be 5f 26 3f 3d
       -0.24694932 0.0018912468 -0.2604707 0.046667453
000330 76 3a 94 3d bf f7 95 3e a0 df 51 3d 1f 44 e3 b8
       0.07237713 0.29290578 0.051238656 -0.00010836892
000340 05 7e aa be bf 53 88 3e ef b9 ab 3e ce 35 ce bc
       -0.3329927 0.26626393 0.33540294 -0.02517214
000350 4c d8 a8 be 5e 42 3c b7 97 32 66 be e3 a6 f1 3d
       -0.3297752 -1.12211255e-05 -0.22480236 0.11799409
000360 53 6f ac 3d eb a1 1b be b7 ec 36 bd 5a 36 b8 3d
       0.08419671 -0.15198486 -0.044659343 0.08994742
000370 1a 4a 49 b7 73 b9 ad be 0b 07 6e be db 63 4b 3e
       -1.1997787e-05 -0.3393055 -0.23244874 0.1986231
000380 09 e1 52 3e ef 61 ca 3d f7 f0 f1 bd 07 b4 8b be
       0.20593657 0.098819606 -0.118135385 -0.27285787
000390 98 19 9c bd 94 ac 4f be ca a8 86 be 42 9f ef be
       -0.07622069 -0.20280677 -0.2630065 -0.46801192
0003a0 0e 5a 07 3e ff 2d cb 3d 34 9e 00 3e 60 b3 77 3e
       0.13217947 0.099208824 0.1256035 0.2418952
0003b0 ba f0 bc be 47 d0 96 3e a8 32 59 3d 05 8e 0d be
       -0.3690241 0.29455778 0.053026825 -0.13823707
0003c0 84 55 10 be 4d 4d 51 3e 4e 3b 94 be 0d 65 b5 bb
       -0.14095122 0.20439644 -0.28951496 -0.005535728
0003d0 1f b2 34 3e 59 2a c7 bd b1 1e f6 3d 33 79 1c 3c
       0.17646073 -0.09724874 0.12017573 0.0095503805
0003e0 c0 43 93 3e e2 b1 33 be c7 69 01 be 8c 23 21 3e
       0.28762627 -0.17548326 -0.12638007 0.15736216
0003f0 92 7e 63 3e 75 1f 1f 3c 48 24 4a 3e 53 68 21 39
       0.22216251 0.00971209 0.19740403 0.0001539302

net.0.bias f4 [64]
000000 24 dd c3 38 5a 59 b3 be 0b be 0d be bc 98 5b b6
       9.339515e-05 -0.35029107 -0.13842027 -3.2722446e-06
000010 ed 7d 6c 3c 2e 43 e7 3a f1 e4 18 3b 46 67 dc 3d
       0.01443432 0.0017643922 0.002332982 0.10761885
000020 10 69 cb bd a6 23 d3 38 a9 d5 27 be 84 fc d0 3d
       -0.099321485 0.00010067904 -0.16390099 0.102044135
000030 3f 40 26 be ba ff 09 bc 23 94 88 b7 5b c9 a8 3e
       -0.16235445 -0.008422786 -1.6281445e-05 0.32966122
000040 41 da a7 be 2d e2 86 be d1 89 44 be 08 c4 4e 3e
       -0.32783702 -0.26344433 -0.19193198 0.20191967
000050 59 eb a2 be e1 b4 d1 b8 ca e8 16 3d c9 b0 0b bb
       -0.3182018 -9.999588e-05 0.0368431 -0.002131509
000060 f3 70 99 3e 04 6c f2 bd f2 5c ba b4 0f ab 98 b6
       0.29968986 -0.118370086 -3.4712826e-07 -4.549867e-06
000070 b4 34 30 3e d0 a2 a7 3e 9e de f9 bc c7 38 0b be
       0.17207605 0.32741404 -0.03050166 -0.13595878
000080 a2 16 0a be d7 41 a7 3d f0 2b 5e be 2c ff 91 b6
       -0.13485196 0.08166855 -0.21696448 -4.3510427e-06
000090 e0 5e 45 be 10 de 6a 3e f2 80 a6 3e 6a 60 45 3c
       -0.19274473 0.22936273 0.32520252 0.012046913
0000a0 92 52 1e 3e 1e 7c 12 bd 50 41 94 be 93 46 6b bb
       0.15461186 -0.0357629 -0.2895608 -0.003590022
0000b0 f9 76 50 be d2 a4 4a 38 35 48 37 3e e4 3c 9b 3e
       -0.20357884 4.8314054e-05 0.17898639 0.30319893
0000c0 70 24 ed bb 00 22 4b 3e 50 9a 1f bc e9 17 2c 3e
       -0.0072370097 0.19837189 -0.009741381 0.16805996
0000d0 d5 c2 30 be 6e 13 07 b7 c4 f0 2c 3c 01 70 c1 38
       -0.17261823 -8.051151e-06 0.01055545 9.2238195e-05
0000e0 59 71 89 3e 22 29 7e be 6f 84 9b 3e 7a 83 f8 3c
       0.2684429 -0.24820378 0.30374476 0.03033613
0000f0 6f 08 f6 37 cd 85 3b 3b 55 52 ab bc 4d 5c 7a 3c
       2.9329412e-05 0.0028613687 -0.020913282 0.015280795

net.1.weight f4 [64]
000000 98 a8 7f 3f 7a a0 79 3f c1 62 80 3f 00 f6 7c 3f
       0.9986663 0.9751049 1.0030137 0.98812866
000010 3e cc 80 3f ab 41 80 3f 87 11 81 3f 73 ec 7f 3f
       1.006233 1.002004 1.0083474 0.9997017
000020 46 1b 7c 3f 3a ef 7e 3f 2e 07 7c 3f c9 f7 7d 3f
       0.98479116 0.9958378 0.98448455 0.99206215
000030 b6 47 80 3f 3d 25 82 3f 56 98 80 3f 86 39 7f 3f
       1.0021884 1.0167614 1.0046489 0.9969715
000040 40 76 7e 3f ab 5a 80 3f 40 26 7f 3f 8a d8 7f 3f
       0.99399185 1.002767 0.9966774 0.9993979
000050 bc 64 7e 3f f1 6c 7b 3f 56 01 7d 3f c5 cc 7d 3f
       0.9937246 0.98213106 0.98830163 0.9914058
000060 c5 31 7e 3f a4 8c 7d 3f 61 c9 81 3f a6 b5 80 3f
       0.9929469 0.99042726 1.0139581 1.0055435
000070 0b 79 7a 3f 6f e7 78 3f 43 e5 80 3f 1f 04 81 3f
       0.97840947 0.9722814 1.0069965 1.0079383
000080 8f 50 81 3f cf 1e 81 3f 82 ef 7a 3f d2 45 7e 3f
       1.010271 1.0087527 0.9802171 0.9932529
000090 b8 3e 7c 3f 02 58 80 3f ff 7b 81 3f 06 4c 80 3f
       0.985332 1.0026858 1.0115966 1.00232
0000a0 de bc 7c 3f 79 c8 7f 3f 4b c6 7d 3f 01 18 80 3f
       0.9872569 0.9991527 0.99130696 1.0007325
0000b0 a4 1c 80 3f 0b bf 80 3f bd 23 81 3f 13 6b 82 3f
       1.000874 1.0058302 1.0089031 1.0188926
0000c0 3c 73 80 3f fc 44 82 3f 03 24 80 3f c6 c2 80 3f
       1.0035167 1.0177302 1.001099 1.005944
0000d0 41 2e 80 3f 91 69 7b 3f 56 a6 82 3f 30 77 7d 3f
       1.0014116 0.98207957 1.0207012 0.9900999
0000e0 02 a1 80 3f 03 fe 81 3f 40 57 7a 3f c5 92 7c 3f
       1.0049136 1.0155643 0.9778938 0.9866145
0000f0 02 e9 80 3f f5 7b 79 3f fd 19 80 3f a9 22 81 3f
       1.0071108 0.9745477 1.0007931 1.0088702

net.1.bias f4 [64]
000000 37 72 0b ba 19 9e c4 bc 96 5c 74 3b c5 43 35 bc
       -0.00053194485 -0.024001168 0.003728663 -0.011063521
000010 8e dc dc 3b 4d 16 3f 3b 01 06 2e 3c 13 22 9f 3a
       0.0067401594 0.002915758 0.010621549 0.0012140892
000020 c9 3b 71 bc 6b 0f 65 bb 79 ae 72 bc e9 73 b6 bb
       -0.014723727 -0.0034951817 -0.014812105 -0.005568017
000030 4f 3a 4e 3b ee a9 90 3c 8b 79 bf 3b ab 66 06 bb
       0.003146786 0.017659154 0.0058433465 -0.0020507972
000040 16 94 a0 bb 85 fd 6f 3b 2b 6d 3a bb 1f 41 0e 3b
       -0.0049004657 0.0036619615 -0.0028446417 0.0021706296
000050 18 4f be bb d8 f7 86 bc da 52 23 bc 79 a5 04 bc
       -0.0058077686 -0.016475603 -0.009968484 -0.008096092
000060 c1 1d cf bb 60 6d 07 bc 99 17 82 3c f1 6e c4 3b
       -0.0063206856 -0.008265823 0.015880393 0.0059946706
000070 15 62 ab bc db 06 d8 bc 54 00 fb 3b 34 18 0d 3c
       -0.020920793 -0.026370456 0.007659951 0.0086117275
000080 78 d5 33 3c 59 3e 18 3c 10 18 97 bc d1 23 d0 bb
       0.010976188 0.009292209 -0.018444091 -0.006351926
000090 15 38 5f bc 5d 61 81 3b 83 6a 63 3c e6 74 62 3b
       -0.013624211 0.003948374 0.013880375 0.003455454
0000a0 75 df 48 bc 77 06 c8 b9 65 77 8c bb 53 b5 48 3c
       -0.012260308 -0.0003815179 -0.004286694 0.012250262
0000b0 30 a4 f4 3a 67 b8 f6 3b d7 41 34 3c 45 9d a3 3c
       0.0018664654 0.0075293067 0.011002026 0.019972453
0000c0 18 89 8c 3b 34 db b3 3c 1a d6 ed 3a f6 33 0d 3c
       0.004288804 0.02195511 0.0018145472 0.0086183455
0000d0 2f f3 3b 3b d8 2b 88 bc ef e1 b2 3c 06 57 a9 bb
       0.0028678884 -0.016622469 0.02183625 -0.0051678447
0000e0 ea 8c d6 3b e0 12 86 3c 87 98 aa bc cd bf 47 bc
       0.00654756 0.016366422 -0.020824684 -0.012191725
0000f0 fd 37 fb 3b 89 e7 80 bc db 6a bc 3a 5f 25 19 3c
       0.0076665864 -0.015735405 0.0014375107 0.009347289

net.1.running_mean f4 [64]
000000 89 87 08 37 99 c8 b7 be 92 4e 15 be ca d7 47 35
       8.137788e-06 -0.3589523 -0.14580753 7.444729e-07
000010 17 10 91 3c 6c 88 3b 3b 16 5d 6c 3b 25 a5 ea 3d
       0.017707868 0.002861525 0.0036066226 0.1145728
000020 58 5b d9 bd 14 0b 3b 38 79 ad 2f be 60 08 df 3d
       -0.106131256 4.459459e-05 -0.17156018 0.10890269
000030 45 14 2e be e9 1f 33 bc a4 cf 70 36 f0 2f ad 3e
       -0.1699992 -0.010932901 3.588365e-06 0.33825636
000040 08 40 ac be 02 26 8b be 6a a0 4c be e3 ed 56 3e
       -0.33642602 -0.27177435 -0.19983068 0.20989184
000050 be 4c a7 be f9 a8 be b8 ee 0c 2b 3d 30 38 5b bb
       -0.32675737 -9.0913796e-05 0.041760378 -0.0033450238
000060 4c c9 9d 3e d4 80 00 be 83 ee 09 33 fb cf 29 37
       0.3081764 -0.12549144 3.2114723e-08 1.0121609e-05
000070 5e 20 38 3e 65 08 ac 3e 9e 9e 0f bd 82 c1 12 be
       0.17981097 0.33600155 -0.03506338 -0.1433163
000080 c5 9b 11 be 0b 77 b4 3d 59 70 66 be c6 65 d8 34
       -0.14219578 0.08811768 -0.22503795 4.0307185e-07
000090 17 77 4d be 6f 36 73 3e 8d e5 aa 3e 53 88 76 3c
       -0.2006496 0.23751234 0.33378258 0.015047151
0000a0 56 12 26 3e a8 60 26 bd 5b 94 98 be 30 39 aa bb
       0.16217932 -0.040619522 -0.29800686 -0.0051948056
0000b0 52 a4 58 be 18 e6 d2 38 91 43 3f 3e 04 97 9f 3e
       -0.21156433 0.000100564386 0.18678118 0.31169903
0000c0 1e 9f 1c bc 2b 45 53 3e 8d dc 4b bc 0b fa 33 3e
       -0.009559421 0.20631854 -0.01244272 0.17575853
0000d0 c2 af 38 be 12 1b 13 b7 8f 01 5b 3c 0d 19 dc 38
       -0.18035796 -8.768186e-06 0.013367071 0.000104950836
0000e0 44 b8 8d 3e 6d 4e 83 be d3 de 9f 3e 6d e6 0e 3d
       0.27679646 -0.25645772 0.3122469 0.03488772
0000f0 bb 1a b2 b6 67 53 8c 3b 91 21 cb bc de ba 98 3c
       -5.307925e-06 0.0042824033 -0.02479628 0.018643793

net.1.running_var f4 [64]
000000 2c 00 89 3d db 34 e2 3a 5f b9 64 3d c1 75 03 3d
       0.06689486 0.0017258184 0.055840846 0.03209472
000010 60 88 bc 3d b2 f8 20 3f d4 15 a4 3d 87 bb db 3e
       0.09205699 0.6287948 0.08011976 0.4291651
000020 a1 75 aa 3e 5b ca 32 3e 4e cf f0 3b 03 4a d2 3d
       0.3329287 0.17460005 0.0073489314 0.10268023
000030 46 43 40 3f 7d 52 6a 3d cd b4 1b 3e df 45 33 3f
       0.7510265 0.057207573 0.15205689 0.7002849
000040 4d 2e 6a 3c da 4b 9f 3e e7 68 0e 3e f6 de 47 3c
       0.0142932655 0.31112558 0.13907205 0.012199154
000050 85 4c c8 3f 0d 7c 9f 3f c7 75 63 3c 98 19 ae 3c
       1.5648352 1.2459732 0.013883061 0.021252438
000060 e4 57 af 3e 72 94 81 3d fd 7b dd 3c 12 6c be 3b
       0.34246743 0.06327142 0.027036661 0.005811223
000070 f9 89 d3 3d 04 6b 1d 3e 1b 13 87 3e a4 d9 d7 3d
       0.103290506 0.15372854 0.26381764 0.105395585
000080 7b 60 1f 3e c6 2e 61 3d 72 c4 9d 3e 34 b6 49 3f
       0.15564148 0.054976247 0.30813938 0.78793645
000090 ab 98 25 3d 44 eb d7 3c 81 cf a8 3e e1 de 1d 3d
       0.0404288 0.0263573 0.32970813 0.038542632
0000a0 35 65 6c 3c f2 a8 21 3b bc 19 6f 3d 22 0a ef 3d
       0.0144284265 0.002466735 0.05837415 0.116718546
0000b0 8c 6d 95 3b 77 d6 e4 3d d2 51 c0 3c ce 3f ca 3e
       0.004560178 0.111737184 0.023476515 0.39501804
0000c0 7b cf 63 3e 3d 1e 39 3d 30 5a 28 3f 1b be c3 3e
       0.22247116 0.045194853 0.65762615 0.38230976
0000d0 59 a5 40 3e 3a 96 78 3f 72 25 b0 3d 95 fa a1 3f
       0.18813075 0.9710423 0.08600892 1.2654597
0000e0 ce c0 e7 3e 0b 6c 34 3c ba 9f ed 3c 1c 9f f7 3c
       0.45264286 0.011012088 0.029006828 0.030227236
0000f0 bf 9b d3 3d f4 47 a1 3d 19 76 8d 3d 32 f9 cd 3e
       0.103324406 0.07875052 0.06907291 0.40229183

net.4.weight f4 [32, 64]
000000 f1 05 df 3d 12 9d 93 3d 79 7a bb bc c1 c2 9b 3d
       0.10889805 0.07207693 -0.022885548 0.07605506
000010 97 57 cc bd 1a 5d 08 bd ce 5a 0e 3d 1a 7c bd 3c
       -0.09977644 -0.033291914 0.034754567 0.023130465
000020 de 68 37 3d 59 3b d6 3d 80 69 e1 bd aa b7 e7 3d
       0.044777744 0.104605384 -0.11006451 0.11314328
000030 b7 ff 63 3d cb aa 8c bd 71 96 3e bd 2e 6f a2 bc
       0.05566379 -0.06868514 -0.04653019 -0.019828405
000040 5c 0e c5 3d 29 0e 4a bd 74 6a 91 bb 66 ee e8 bd
       0.096218795 -0.04932991 -0.004437739 -0.11373596
000050 a6 df dd bd 81 54 7f bc 1a 11 b7 bd dd d8 00 3d
       -0.10833673 -0.015584112 -0.08938809 0.031456817
000060 5c 8a 9a bc 7f 4b 92 bd 4c 55 9d 3d 90 67 b8 bd
       -0.018864803 -0.07143306 0.07682285 -0.09004128
000070 2d ed af ba 6b 5c 5d 3d 1e a1 06 bb c4 a5 8e bd
       -0.0013422124 0.054043215 -0.002054281 -0.06965211
000080 be d3 e1 3d 51 1e 83 3c 11 da 79 3d 16 a4 56 bd
       0.11026715 0.016005667 0.06099898 -0.05240258
000090 86 bc 82 bd 1e 9f 46 3b 72 73 90 3d 90 f8 57 3c
       -0.06383614 0.0030307244 0.070532694 0.0131818205
0000a0 6c 46 de 3d f1 30 a0 3d fa c9 15 3d 87 75 12 3c
       0.10853276 0.07821835 0.036569573 0.0089391535
0000b0 0c 11 e3 bd b1 71 d7 3d 5d 46 1f bd 43 91 08 3d
       -0.11087236 0.10519732 -0.038885463 0.033341657
0000c0 a7 54 b4 3d f2 e5 e0 ba 80 ce 77 3b e2 cc 9b bd
       0.08805209 -0.0017158373 0.0037812293 -0.07607438
0000d0 e1 57 3f 3c 42 67 6f 3d 19 e8 fa bb 16 04 e0 3d
       0.011678667 0.058448084 -0.0076570627 0.10938279
0000e0 a7 70 47 3d f9 95 db 3c c8 82 9c 3c 86 c9 9a bc
       0.048691418 0.026804911 0.01910533 -0.018894922
0000f0 1b ad a4 3d c1 ba 4d 3b 96 4d cd bd 54 bb c9 3d
       0.0804083 0.0031391832 -0.10024564 0.09850183
000100 72 8a a4 bd 60 cd 5e bd 2d 7e f4 3d d7 e7 0f bc
       -0.08034219 -0.05439508 0.119381286 -0.008783302
000110 73 88 af bd 8e 8a f5 bd e2 42 47 3d 97 5f a1 bd
       -0.085709475 -0.11989318 0.04864777 -0.078795604
000120 04 80 b8 3d 35 09 a1 bd f4 e5 96 bd 7c 8e a0 3d
       0.09008792 -0.07863084 -0.07368079 0.07839677
000130 49 81 cc 3d 7a a7 02 bd 12 19 ed ba 5f a7 2a bd
       0.09985597 -0.031898 -0.0018089137 -0.041663524
000140 4d c7 a7 bc 02 26 92 3d 24 e8 9c bd 8d 10 9d 3d
       -0.020480776 0.07136156 -0.07661465 0.076691724
000150 b2 a8 41 bd ff e9 ba 3c e1 c8 55 bd 1a b8 9a 3d
       -0.04728002 0.022816656 -0.052193526 0.07554646
000160 76 5f d5 3d e7 7d 35 bd e6 4f 12 3d bb 1c af bd
       0.10418598 -0.044309523 0.03572073 -0.08550402
000170 06 d8 02 be cb ae d1 3d 13 a1 bf 3d 5e a1 95 3b
       -0.12777719 0.10238417 0.09356894 0.0045663556
000180 59 17 c8 3d ea cf 94 3d 17 31 ee 3d 80 72 df bc
       0.09770078 0.07266219 0.11630457 -0.027276278
000190 1c 25 bb bd 68 78 69 bd 13 f1 fb bd 3a 79 c0 3c
       -0.091379374 -0.056999594 -0.12301841 0.023495305
0001a0 3d 8e 43 3d f7 10 e9 3c 63 d0 95 3d 41 24 be bd
       0.04774307 0.028450472 0.07315137 -0.09284259
0001b0 f2 8b a8 3c 63 d1 e9 bc f9 67 7a bd af 94 bd bd
       0.020574544 -0.028542226 -0.061134312 -0.09256875
0001c0 4d b8 7e 3d 61 0a 69 3d 17 0a a3 3d bc 06 c0 bd
       0.06218748 0.056894664 0.07960909 -0.093762845
0001d0 d8 32 84 3d 46 84 8f 3d ba 33 87 3d 4f d2 bf bb
       0.0645501 0.07007651 0.06601663 -0.005853928
0001e0 b1 ac c6 bd d4 28 01 3e f4 56 cb 3d b7 6c 9e 3d
       -0.09700907 0.12613231 0.09928694 0.077355795
0001f0 22 3c c1 3d 6f 59 cc 3c ba 95 b5 bd 08 8e 8a bd
       0.094352975 0.024944989 -0.08866449 -0.067653716
000200 c5 0a 2b bd 97 f0 e8 bc 76 25 29 3c 43 a3 10 3d
       -0.041758318 -0.028435035 0.010323873 0.03531195
000210 9a 67 e2 3c 70 81 ad bd 2e b1 e4 bc f6 d7 7e bd
       0.027637292 -0.08471954 -0.027916517 -0.062217675
000220 49 ca d0 bc fc b8 d3 3c 34 a6 6e bd af ab 10 bd
       -0.025487082 0.025845043 -0.058263972 -0.03531998
000230 06 ef cb 3c fe 6d b0 3d de 11 ce 3d b2 09 9c bd
       0.024894249 0.08614729 0.10062002 -0.07619037
000240 b6 58 02 3e aa e8 72 bc 05 ca 8a 3b f4 05 cc bd
       0.12729153 -0.014825979 0.0042355084 -0.09962073
000250 ee d6 51 bc 77 14 49 3d 1d 12 3c 3c a8 f9 43 3d
       -0.012807591 0.049091782 0.011478928 0.047845513
000260 e9 57 d6 3d ba 80 7d 3d 6e 52 1a 3c af 4a cb 3d
       0.10465986 0.06189034 0.009419067 0.09926354
000270 6f 34 bf bd 2f de 2e bd 1c 11 8c 3c 78 6b 4c 3d
       -0.09336173 -0.04269236 0.017098002 0.049907178
000280 9e 12 b9 3c ba 34 bc 3d 4c 5e 7b 3d 06 03 8d 3d
       0.022591885 0.09189744 0.061369225 0.06885342
000290 94 2d 04 3d 83 8b bf bc 36 ab ba 3d 5a d1 c2 bd
       0.03227003 -0.023381954 0.09114687 -0.09512587
0002a0 43 a7 05 bd 34 9a ab 3d 3c 90 cb 3c 09 02 9b 3d
       -0.032630216 0.08379021 0.02484905 0.075687476
0002b0 bb f5 92 bc 1e a4 67 bc fc 89 9d bc 00 44 98 bd
       -0.017939439 -0.01413825 -0.019230835 -0.07434845
0002c0 d6 f7 6f 3c 1a 3f 8e bd 85 89 3a bd 9a 2f f5 bc
       0.014646491 -0.069456294 -0.045541305 -0.029929925
0002d0 a1 08 c9 bc 61 b4 c1 bd 59 27 aa 3d 26 9b 5b 3b
       -0.024540247 -0.09458233 0.08308286 0.0033509224
0002e0 a7 3f ab bd ce 1e 08 bd 9d 58 51 bd 7a 91 fd 3c
       -0.0836175 -0.033232503 -0.0511099 0.030953158
0002f0 79 62 02 ba e7 52 b7 bd 3f a2 1a bd ea cd 2a 3c
       -0.000497378 -0.08951359 -0.037752386 0.01042507
000300 fc 28 7c 3d 22 83 d5 3d dc da 7e bd bd 5a b4 bd
       0.061562523 0.10425402 -0.06222044 -0.088063695
000310 28 e2 7b bd b0 de 8a 3c bc ef e9 3c 75 00 3a 3d
       -0.061494976 0.016951889 0.028556697 0.045410592
000320 96 e5 04 3d d5 82 42 bd 99 4e 14 3a 2b d7 45 ba
       0.032445513 -0.047488052 0.0005657464 -0.0007547016
000330 7f 14 2f 3d 79 60 56 bd bc 88 7b 3d d8 ea 81 3d
       0.042744156 -0.052338097 0.061409697 0.06343621
000340 7d 3c a8 bc f3 ef 8b bd fc a0 76 bd cc b0 68 bb
       -0.020536656 -0.06832876 -0.06021212 -0.003550577
000350 b0 dc 94 bc d8 62 59 bc 10 49 06 3c da 44 73 bd
       -0.018171638 -0.013268195 0.00819613 -0.059391834
000360 be f5 90 3b 82 4f 30 3d 22 31 ae bd 27 11 c1 bc
       0.004423826 0.043044575 -0.08505465 -0.02356775
000370 dc 61 ad bc 76 59 c3 3d 4f 93 db bc 60 2e 4b 3d
       -0.021164827 0.09538548 -0.02680364 0.049604774
000380 49 8e 82 bd 1e ac 6a bd 68 2f 2f 3d 33 8c 0b 3d
       -0.06374795 -0.05729305 0.04276982 0.03406925
000390 87 2b 52 bc a6 e1 90 bc d9 37 b0 bd 21 ef 44 bd
       -0.012827761 -0.017685723 -0.08604402 -0.048079614
0003a0 27 44 cb 3d 2f a9 2b 3d 22 e2 42 3d e2 d0 fe bc
       0.099251084 0.041909393 0.04757894 -0.031105462
0003b0 57 fa 78 bc df 56 96 bd 7e b0 9c bd 73 9b 94 bc
       -0.015196404 -0.07340788 -0.07650851 -0.01814053
0003c0 c9 93 18 bd 1b 6a 9b bc e1 f6 8d bd b1 cd 8c bc
       -0.037250314 -0.018971493 -0.06931854 -0.017187925
0003d0 4f fb 74 bd 6e 44 d0 3c b3 d1 c0 3c a5 9e 40 3d
       -0.05980998 0.025423255 0.023537492 0.047026295
0003e0 6a 5e 0b bd f0 40 82 bc b6 07 94 bd ad d8 a7 bd
       -0.034025587 -0.015900105 -0.07228033 -0.081956245
0003f0 29 d2 6b 3b c4 eb 6a 3d 4f 2d 38 bc d6 5d ef bd
       0.003598342 0.05735375 -0.011241271 -0.1168782

net.4.bias f4 [32]
000000 ca e0 fc 36 03 c5 04 b8 c2 9d 91 37 6f 70 82 b6
       7.536354e-06 -3.1654734e-05 1.7358809e-05 -3.887391e-06
000010 fb 3d a8 3b 0d 12 24 3c 91 64 88 bc b0 b0 3f 36
       0.005134342 0.010014069 -0.016649516 2.8564064e-06
000020 04 a9 92 b7 68 b8 3c 37 4f ce 30 37 b4 0e 8c 3a
       -1.748326e-05 1.1248609e-05 1.0538452e-05 0.0010685534
000030 47 90 0b 36 04 99 ab 36 96 c6 8c 37 fb 60 76 36
       2.0796595e-06 5.1140105e-06 1.6781774e-05 3.6713307e-06
000040 99 f2 43 b8 cd 20 95 ba a0 d1 61 b9 e3 ab 9c 37
       -4.671756e-05 -0.0011377573 -0.00021535764 1.867669e-05
000050 4a e3 31 b7 99 18 bf b7 ff 92 d7 36 74 5b 4f bb
       -1.0602942e-05 -2.2780428e-05 6.424612e-06 -0.0031640204
000060 0e 52 5a 39 82 75 67 36 84 05 86 bc 23 76 d7 3b
       0.00020820668 3.449008e-06 -0.016360052 0.0065753623
000070 c1 61 9d 37 89 f3 30 bc f9 51 46 37 f6 a6 db ba
       1.8761379e-05 -0.010800251 1.1820805e-05 -0.0016758132

net.5.weight f4 [32]
000000 09 d1 7d 3f 04 fe 8b 3f 95 fd 8a 3f 8c 74 87 3f
       0.9914709 1.0936894 1.0858637 1.0582442
000010 fc a2 89 3f 34 84 8b 3f 0f 30 7e 3f 3d db 8b 3f
       1.0752864 1.089972 0.9929208 1.0926281
000020 a8 e7 8c 3f 5f bc 8d 3f f0 5d 83 3f e1 21 8e 3f
       1.1008196 1.1073111 1.0263042 1.1104089
000030 ca e0 78 3f 67 ca 8e 3f 5c c5 88 3f 4a 90 8c 3f
       0.97218 1.1155518 1.0685229 1.0981534
000040 9d a2 8c 3f 39 84 8f 3f ce 94 85 3f b9 15 91 3f
       1.0987126 1.1212226 1.0436037 1.1334754
000050 c3 c1 79 3f 92 9c 89 3f 49 67 8f 3f eb 04 83 3f
       0.9756128 1.0750906 1.1203395 1.0235876
000060 7c 1f 88 3f 76 08 8d 3f 12 0c 8f 3f 1d 92 8e 3f
       1.0634608 1.1018207 1.1175559 1.113834
000070 96 ce 89 3f 2f 58 8d 3f 2a 14 8d 3f d9 9e 81 3f
       1.076617 1.1042536 1.1021779 1.0126601

net.5.bias f4 [32]
000000 d1 37 85 bb f2 89 c0 3d 44 6d b3 3d ca 00 7e 3d
       -0.0040654917 0.09401311 0.08761075 0.06201247
000010 5f 29 9f 3d 36 b6 bd 3d b9 8d 8e bb 7b 3f c4 3d
       0.07771563 0.092632696 -0.0043503908 0.095824204
000020 37 b0 d2 3d 8b ac dc 3d dc 67 f0 3c 48 1a e3 3d
       0.102875166 0.107750975 0.029346399 0.11088997
000030 60 6d c7 bc b9 e0 ee 3d b9 c2 91 3d c3 55 ca 3d
       -0.024344146 0.11663956 0.071172185 0.09879639
000040 96 04 ce 3d c9 e9 f8 3d b7 9a 3c 3d b3 66 09 3e
       0.100594684 0.12153966 0.046045985 0.13418083
000050 27 36 c3 bc 93 4e 9d 3d 63 1f f7 3d 81 2c e6 3c
       -0.023829533 0.076810025 0.120665334 0.028097393
000060 c0 3c 8a 3d c9 53 d1 3d 6c df f3 3d ae 82 eb 3d
       0.067498684 0.10221059 0.11907849 0.114995345
000070 10 63 9e 3d a4 0d d7 3d e6 5c d2 3d 11 34 81 3c
       0.077337384 0.105006486 0.10271625 0.015771898

net.5.running_mean f4 [32]
000000 1a 91 88 3e 73 7b 1b 3e 32 52 1c 3d 28 08 cb be
       0.26673204 0.15183811 0.038164325 -0.3965466
000010 81 18 6a be fe 1f 3c be 3d c0 50 3e 9f 63 ea 3d
       -0.2286091 -0.18371579 0.20385833 0.114447825
000020 e9 99 da bd 23 75 4e 3d f7 4f 24 3e 41 da 30 be
       -0.10673887 0.05040468 0.16046129 -0.17270757
000030 1c 74 34 3d fa d4 8a 3e 28 f2 c1 bc 93 3a 89 bd
       0.044056043 0.27115613 -0.02367504 -0.06700625
000040 9a 9e 89 3e c3 c3 88 bd 5f 04 09 be b8 4a 0c 3e
       0.26878816 -0.066779636 -0.13380574 0.13700378
000050 ee a5 5b 3c 66 9b 4f 3d 6a 63 86 3d ac bd b5 3d
       0.01340626 0.05068531 0.065619305 0.08874068
000060 d0 da 58 3e 33 2f a5 3b ea 86 bb bd 4c 30 5b 3c
       0.2117722 0.005041027 -0.09156592 0.013378214
000070 a1 6a dd 3d 98 3f 05 3f 91 de 1c be a7 37 1c 3f
       0.108113535 0.5205016 -0.15319277 0.6102242

net.5.running_var f4 [32]
000000 dd 4c fc 3d 25 1b 3d 3f 21 d1 0c 3f 97 b6 98 3e
       0.12319348 0.73869544 0.55006605 0.29826805
000010 45 d5 65 3d 0a 3d 07 3f 78 b0 d3 3d 46 8d 60 3f
       0.056111593 0.52827513 0.10336393 0.87715566
000020 b4 0b 10 3e 7a f8 00 3f e3 98 01 3f 7d f9 b1 3e
       0.14066964 0.50379145 0.5062391 0.34760657
000030 66 2f a0 3e 60 16 ea 3e 68 b5 22 3f 9e 61 88 3f
       0.31286162 0.45720196 0.63558054 1.065479
000040 4a 28 37 3f b4 02 7c 3e 63 96 8a 3e 15 46 0a 3f
       0.7154585 0.24610406 0.2706786 0.54013187
000050 96 f5 b3 3d 66 55 e9 3d 39 c8 81 3e 29 9c dd 3e
       0.08787076 0.113932416 0.2534807 0.43283203
000060 63 2b 84 3d e4 7b 24 3e 09 59 a0 3e 05 cb a2 3e
       0.06453588 0.16062886 0.31317928 0.31795517
000070 8b 19 c7 3e 86 9b 0f 3f 16 e7 c9 3e b7 37 de 3d
       0.38886675 0.56096685 0.39434117 0.108504705

net.8.weight f4 [16, 32]
000000 b2 d2 0e be 6c bc 17 be 32 a8 b4 bd 5c 02 eb bd
       -0.13947561 -0.14817971 -0.08821143 -0.114750594
000010 2b 88 70 3e 27 8e 5f bd 31 e8 69 3e aa 5a 53 bd
       0.23489444 -0.054578926 0.2284248 -0.051600136
000020 e8 63 3f bd 9d 83 94 3c 94 e1 39 bd e3 b0 a8 3d
       -0.046726137 0.018129164 -0.045381144 0.082368635
000030 f8 26 0b 3e c8 a4 e1 3d 6e 88 b4 3b c2 6b ba ba
       0.13589084 0.11017758 0.0055094277 -0.0014222788
000040 9c 7c 17 3e bb 74 04 3e 54 a1 04 3e 55 39 8a 3e
       0.14793628 0.12935154 0.12952167 0.26996866
000050 f2 77 30 3d 01 9b e7 3d 32 26 76 3c 53 6b 05 3e
       0.04308314 0.113088615 0.015023755 0.13029222
000060 b7 83 c4 bd 4c 26 58 be e0 59 61 bd dc e4 fe bd
       -0.09595435 -0.21108359 -0.055017352 -0.12445995
000070 8d 1d 3e be 6d 9d 93 3c 6d 9d 67 3d ad b7 34 3e
       -0.1856596 0.018019402 0.056546617 0.17648192
000080 83 90 db 3d 61 b6 93 3d db 11 51 be fd 61 bc 3d
       0.10720923 0.072125204 -0.20416968 0.09198377
000090 cd 3b ea 3d 9c db d0 bd c8 04 5b 3e 72 44 00 3d
       0.11437187 -0.10198137 0.21388543 0.031315275
0000a0 a5 9f 50 3c d6 7f c0 3d 09 21 b0 3d c4 22 bb 3d
       0.012733375 0.09399383 0.08600051 0.091374904
0000b0 04 ce 18 be a6 bc 3e 3e 75 11 25 3d 16 fd 53 be
       -0.14922339 0.18626651 0.04029985 -0.20702013
0000c0 dd f0 b5 3d 6d 39 b9 3d a6 7e 55 3e 0e bc 75 3e
       0.08883832 0.09044156 0.20849094 0.23997518
0000d0 5f 00 3e bd 36 cf f4 bd 00 9a 8c 3e 3b 44 d5 bc
       -0.046387073 -0.11953585 0.27461243 -0.026033511
0000e0 46 8f 0c 3e 34 b7 90 bd 7e 80 23 3e ef 8f b1 3d
       0.1372653 -0.07066193 0.15966985 0.08670031
0000f0 35 fa eb bd 3e 08 13 3e 06 c5 27 be d0 3b 80 38
       -0.115223326 0.14358613 -0.16383752 6.1146566e-05
000100 b5 95 e4 bd 93 12 0e be 12 63 70 3d 9b d7 eb bd
       -0.11161367 -0.13874273 0.05868823 -0.11515733
000110 76 0e cd 3d a6 de 2e bd e5 ec 2b bd b2 f7 08 be
       0.10012524 -0.042692803 -0.041973967 -0.13375738
000120 c6 d2 0d 3e 98 18 5a 3e a9 6a 5b bd 79 ac 85 3e
       0.13849935 0.21298444 -0.053568516 0.2610815
000130 8a 66 92 bc 3b 66 79 3e 4f 4d 7d bd ff 44 72 bb
       -0.01787116 0.24355404 -0.061841305 -0.0036967394
000140 6a 7a ad 3c 25 eb 38 3e 5c e0 b9 bc 6e fd 40 3d
       0.021176536 0.1805845 -0.02268999 0.04711669
000150 ce 26 cd 3c 88 53 68 bd b1 81 24 3e 8c f2 23 bd
       0.025042918 -0.056720287 0.16065098 -0.040026233
000160 ce 52 b5 3d cf c6 b8 bd 7a 7f 7e 3d cb 84 8b 3d
       0.08853684 -0.09022295 0.06213329 0.068124376
000170 6e 6a 38 3d ce 34 a0 bc e1 c0 95 3c d4 9c 32 3d
       0.045023374 -0.01955643 0.018280448 0.043606594
000180 ea 01 8d 3c 0f 7e 49 3c 0f 2d 0b bd ec 4b 67 bd
       0.017212827 0.012298121 -0.033978518 -0.05646889
000190 2d 19 5f 3e 0a c2 61 bb 81 d7 a7 bd 44 a2 ab bd
       0.21786948 -0.0034447932 -0.08195401 -0.08380559
0001a0 5b 82 9e bd 6d 55 73 3d 9e 1b 5f 3d 1e 1f 21 3d
       -0.07739707 0.05940764 0.054469697 0.039336316
0001b0 e6 33 03 be 15 29 aa 3d d6 d2 2d bc fc 70 5a bc
       -0.12812766 0.08308617 -0.010609349 -0.013332602
0001c0 66 33 3a 3d 7e 40 f6 3d 6f f3 6a bd c1 be b1 bc
       0.045459174 0.1202402 -0.057361063 -0.021697404
0001d0 90 5a de bd 17 0f 70 bc b4 18 84 3e 5e d7 03 bc
       -0.10857117 -0.014652035 0.25800097 -0.008046953
0001e0 16 47 5f 3d 79 3a 2e be d1 f9 79 3e c9 a6 ee bd
       0.054511152 -0.17014493 0.24411704 -0.116529055
0001f0 ba a5 b2 3d 49 61 35 3e 5f 0b 1e bd 78 15 22 bd
       0.08723016 0.17712893 -0.038585063 -0.039571255
000200 32 e0 a1 bd 00 cc 62 3e 49 24 6e 3e e6 e5 4b 3e
       -0.0790409 0.22148132 0.23256029 0.19911918
000210 b9 9d d8 3d 91 f5 60 3e 0c 17 cf bd df 00 95 3d
       0.10576958 0.21968676 -0.10111818 0.07275557
000220 6d 7a 87 bd 9a f0 93 3d e4 b7 db 3d 62 3c 42 be
       -0.06615148 0.072236255 0.10728434 -0.18968347
000230 61 51 8c 3c 28 20 ca bd 99 dc 41 3e ab bd 87 39
       0.017128648 -0.098694146 0.18931808 0.0002589052
000240 f5 61 8e 3d 53 a1 9b 3d f4 1c a0 bd a3 40 bc bc
       0.069522776 0.075991295 -0.07818022 -0.02298004
000250 5d b6 91 3d 9a e0 13 3e d5 e0 2a be 56 6c 16 3e
       0.07114861 0.14441147 -0.16687329 0.14689764
000260 ae 0a 6d 3c 62 8f 12 3e 0a d4 83 bc 13 8e 71 3c
       0.014467878 0.14312509 -0.016092319 0.014743346
000270 71 ac 42 3e 44 4a 7e 3d e6 a0 26 3e c0 c2 2d 3d
       0.19011094 0.062082544 0.16272315 0.042422056
000280 45 eb 78 3e 7e c6 aa bc cf 54 2b 3c 82 55 48 3e
       0.24308498 -0.020846602 0.010457232 0.19563869
000290 58 0d c2 3c d9 49 46 3e 8b c0 09 3e be c3 3b 3e
       0.023688003 0.19364108 0.13452356 0.18336388
0002a0 b1 01 f1 3d d2 45 3c be 45 10 b1 3d e2 75 57 3b
       0.11767901 -0.1838601 0.08645681 0.003287666
0002b0 00 cd 0e 36 35 1e 5d 3d 5a 12 7b 3e 0d 3b 7f 3e
       2.1278975e-06 0.053983886 0.2451872 0.2492487
0002c0 32 5c 19 3e 79 03 8f bb 19 4d 54 bc a2 53 10 bd
       0.14976576 -0.0043644276 -0.012957835 -0.03523601
0002d0 49 73 1f 3e 26 38 18 3e 44 5c b2 bd 09 37 2e bd
       0.15571322 0.14865169 -0.087090045 -0.042532954
0002e0 15 5c f1 3c 2f b8 b8 3d 5b 81 39 be 1a bc 36 3e
       0.029462853 0.09019505 -0.18115751 0.17845193
0002f0 34 fd 58 3d 19 16 b7 bd 88 63 2a 3e f3 be 66 bd
       0.05297585 -0.08939762 0.1663953 -0.056334447
000300 98 3a 1d bc bf cc 1e be 69 92 ab bc 29 9f d1 3d
       -0.009596489 -0.15507792 -0.020943837 0.102354355
000310 3e e6 24 3e e7 28 dd bd ee 10 6e 3e 8b b1 10 3e
       0.16103455 -0.10798817 0.23248646 0.14130227
000320 94 7c 2d bd b3 4b 61 3e 44 7c 15 bd 8d 53 f5 3d
       -0.042355135 0.22001533 -0.036495462 0.11978827
000330 71 1e 25 bc 78 0b 0d 3c 91 a3 c7 bd ee 58 c6 bc
       -0.010078059 0.008608691 -0.09747995 -0.024212327
000340 b8 47 dc 3c b8 5d 21 3d c8 f2 f6 3d b3 92 a5 3d
       0.026889667 0.039396018 0.120580256 0.08084621
000350 a5 64 bd bd 61 9c a4 3b fb 10 d3 3c de 87 81 bd
       -0.09247712 0.0050235246 0.025764933 -0.06324743
000360 be 56 8d bd 11 b5 f2 bd 0e bf d2 3d 86 46 8a bc
       -0.069013104 -0.11850942 0.10290347 -0.016879331
000370 ce 48 9d bd 14 68 94 3e 00 a8 c6 bc 76 26 06 bd
       -0.07679902 0.28985655 -0.02425003 -0.032751523
000380 da 00 cd bc fa 6d ce 3c e4 bf e9 bd e3 5d ec 3d
       -0.02502482 0.025198925 -0.11413553 0.11541345
000390 87 90 af bd c0 0d ee bd b0 85 09 3e 53 c6 fd 3d
       -0.08572488 -0.11623716 0.13429904 0.12391343
0003a0 74 e3 6a bc c2 d6 b9 3d c0 6d 17 bd e8 8a 4a 3e
       -0.014336456 0.09074165 -0.0369699 0.19779551
0003b0 a5 ee 05 be 15 bb 1a 3e da 56 82 bd 98 61 1b be
       -0.13079317 0.15110429 -0.06364222 -0.15173948
0003c0 38 ae 81 3c 6e db 87 3e 10 e8 34 bd 29 d8 78 3e
       0.015830144 0.265346 -0.044166625 0.24301209
0003d0 30 ef d0 bd 33 ac 0f 3e ad 0d 86 3e bb 7f 9c 3d
       -0.102018714 0.14030533 0.2618231 0.0764155
0003e0 fb 5a 75 3d 5b 6a c5 bd 3f 07 94 3b 55 a8 97 bc
       0.05990122 -0.09639426 0.0045174654 -0.018512884
0003f0 a9 ae 51 3d fe 93 6f 3e 1a 4a 80 bd 22 ec 6d 3c
       0.05119196 0.23396298 -0.06264134 0.0145216305

net.8.bias f4 [16]
000000 7f ea e5 3d 1b 05 67 3e 92 03 be 3d c6 f4 87 3e
       0.11226367 0.22560541 0.09278025 0.26553935
000010 2c ca cd 3c 29 5e 01 3e 97 f6 7e 3e 88 29 6c bc
       0.025120817 0.12633575 0.24898754 -0.014414199
000020 44 c3 3d 3e 18 5b 89 bc fd bb b1 bd 65 d5 1f 3e
       0.18531519 -0.01676707 -0.08678434 0.15608747
000030 d6 5c 01 3e 95 bb 24 3e 2d 42 76 3e a1 8f 5e 3d
       0.1263307 0.16087182 0.24048682 0.054336194

net.10.weight f4 [1, 16]
000000 a6 d6 38 3e ff dc 50 3e 77 8c 41 3e ab 4d b8 3e
       0.18050632 0.20396803 0.1890124 0.35996756
000010 3c 59 61 be 89 23 04 be cf 3d 10 3e 8b 9e 7f 3e
       -0.22006696 -0.1290418 0.14086078 0.24962823
000020 de 60 ef bd 3d 0c 84 be 42 d3 2f be 43 3a 56 3e
       -0.11688398 -0.25790587 -0.17170432 0.20920663
000030 b0 09 84 be e7 02 9d be bf 4f 58 be 13 8c ab 3e
       -0.2578864 -0.30666277 -0.2112417 0.33505306
